checkpoint_actor.pth (torch_old, 600141 bytes, 6 tensors)

fc1.weight f4 [512, 33]
000000 35 da c9 bd 5a ef 49 3e 67 81 ba 3d de 2c 07 be
       -0.09856073 0.19720212 0.09106713 -0.13200709
000010 90 be 52 be 6f 4c 45 bf fb a6 df 3e e2 e8 42 3d
       -0.20580506 -0.77069753 0.43682083 0.047585376
000020 be 58 e3 bc 31 b6 fa 3d cb 4f f3 3c a5 7f cf bd
       -0.027752277 0.122417815 0.029701134 -0.10131768
000030 5f 79 7f bc 18 25 d4 bd 69 b1 5d bb 10 2a 74 be
       -0.015592902 -0.103586376 -0.0033827669 -0.2384417
000040 1e 67 f2 bc 70 a8 33 be 71 a2 06 bd 8a c4 05 be
       -0.029590186 -0.17544723 -0.03286976 -0.13063255
000050 95 97 6e 3d 45 f2 b7 3d e0 cf 38 3d 21 5e 0c bd
       0.05825003 0.08981756 0.04512012 -0.034269456
000060 c0 81 ad 3b 1d 31 a8 bd 51 ca 32 be 2f 06 ef 3d
       0.0052950084 -0.082124926 -0.1745999 0.11671101
000070 a7 f3 33 bb f0 d9 84 3b 5a c0 e1 bd ca 94 ad bc
       -0.002745846 0.0040543005 -0.11023016 -0.021189112
000080 22 95 cb 3e c0 54 21 bd 99 6b 8e 3e cd 58 5d 3d
       0.39762217 -0.039387465 0.27816465 0.054039765
000090 13 bb 73 3d e2 99 ff 3e aa 2d fc bd 6c dd b1 be
       0.05950458 0.4992209 -0.12313397 -0.34739244
0000a0 ef 96 14 be 6f 85 98 3c d6 c6 1a be 6a dd ba be
       -0.14510702 0.018618314 -0.15114912 -0.3649705
0000b0 11 dd 84 bb 6c 92 92 3c f4 59 ee 3c 9e b0 23 3e
       -0.0040546735 0.017892085 0.029095627 0.15985343
0000c0 be 63 4c bd 8b c5 bd 3c 1c e6 3b 3e ae 29 84 3e
       -0.04989981 0.023165485 0.18349499 0.2581305
0000d0 74 e3 95 3d d0 fd 88 3c e4 f2 6f 3e 2e 77 0a 3d
       0.07318774 0.01672259 0.23432499 0.033805065
0000e0 e3 02 dd bc 26 57 b3 3d 41 17 82 be 97 82 f8 bd
       -0.026978916 0.087568566 -0.25408366 -0.12134283
0000f0 9f ba 1e 3e 87 50 95 3c b8 87 91 3c 8a 42 ea bd
       0.15500878 0.018226875 0.017764911 -0.114384726
000100 ff ce 03 bd 4f e5 59 bf 34 fc 9e bc 1b 72 00 3e
       -0.03217983 -0.8511552 -0.01940737 0.12543528
000110 62 e5 b4 3e 00 a9 92 3e 25 3d 93 bd 77 80 18 3e
       0.35331255 0.28644562 -0.07189397 0.14892755
000120 8c 3d 51 be d9 08 d2 bc f1 57 da bb c1 40 c5 bc
       -0.20433635 -0.025638985 -0.0066633155 -0.024078729
000130 20 14 16 3d 59 46 2a 3c 5e b6 c4 3d e9 81 8b ba
       0.036640286 0.010392749 0.09605096 -0.0010643575
000140 76 7b d0 bd f8 ef c9 bd 22 c1 ad 3e 8b 22 a3 bd
       -0.10179798 -0.098602235 0.3393641 -0.07965573
000150 e8 d0 9b bc 96 4d b9 bd f9 2c d7 3d ed 3d ff bd
       -0.019020513 -0.090480015 0.10506625 -0.12462983
000160 d5 51 1f bd 09 10 25 3c 23 2e 71 bd 5f d0 ac 3d
       -0.0388964 0.010074624 -0.05888189 0.08438181
000170 7a 4f a2 3d 66 9b ea 3d ac f3 22 bd 60 a3 29 3c
       0.07925315 0.11455421 -0.039783165 0.010353893
000180 44 1e 06 be 0a 77 88 3c af 24 94 bf 5f ae 54 bc
       -0.13097483 0.016658325 -1.1573695 -0.012981026
000190 91 3a ca bd 66 0f 9a bd b6 91 09 3e 90 ce 7d 3c
       -0.09874452 -0.07522468 0.1343449 0.015491143
0001a0 48 5c 4d be 0d 8d 71 be 00 25 93 3d ee 7a 18 3d
       -0.20054734 -0.23588963 0.071847916 0.03722661
0001b0 9c 0a a2 3b 6d d7 ac bd f4 73 a7 bc ca 1e 92 bd
       0.0049451124 -0.08439527 -0.020441033 -0.07134779
0001c0 ea 17 3f be ab 12 62 3e 66 4a 39 bd bb 18 1e 3e
       -0.18661466 0.22077434 -0.045236968 0.15439121
0001d0 4a 17 ef 3c bb 2d ad 3d 59 f0 74 be 31 b9 09 be
       0.02918591 0.08455988 -0.2391981 -0.13449551
0001e0 c2 5f f3 3d 82 2e b8 3c 30 ae 92 bd 5d 03 aa 3d
       0.11883499 0.022483114 -0.0716213 0.08301423
0001f0 c0 22 af 3d 08 24 0d 3e cd 73 22 be d3 c8 2e 3e
       0.0855155 0.13783276 -0.15864487 0.17068796
000200 66 32 a2 3c 01 10 e5 3d 13 0f 13 3d 64 7b a8 3e
       0.019799422 0.11184693 0.035903048 0.3290664
000210 c0 54 61 bd 7c 99 1b 3e b9 98 04 3e 81 41 9f 3e
       -0.055012465 0.15195268 0.12948884 0.31104663
000220 db 16 93 3e 39 b6 87 3d 6b 6b 48 bb db 4d 73 bc
       0.28728375 0.06626553 -0.0030581604 -0.014850105
000230 1f 9d 0a 3e 2d 74 0d 3e d1 7a c0 3d 74 e9 82 bd
       0.135365 0.13813849 0.09398425 -0.06392184
000240 06 27 c3 3d 6c 5f 66 be 09 e2 88 3d 74 60 22 be
       0.095289275 -0.22497338 0.06683738 -0.15857106
000250 bb c4 52 bd ce 3f 9c be 52 7d 33 3e 0d 21 1b 3e
       -0.051457148 -0.3051743 0.17528275 0.15149327
000260 23 75 58 bd 21 a2 b8 3a 39 37 22 bd 3c 7c 7a bd
       -0.052846085 0.0014086404 -0.039603446 -0.061153635
000270 19 94 76 3d eb 08 20 be 72 d9 4a 3e 37 21 e3 3d
       0.06019983 -0.15628402 0.19809511 0.110903196
000280 1c 0d 47 bc 0c f4 10 bd 90 7f fc bd af 68 c6 bc
       -0.012149122 -0.03538899 -0.12329018 -0.024219839
000290 cf 4f 38 bf d8 0e 32 bd a6 7b e4 3d 3f b1 59 be
       -0.7199678 -0.043471187 0.111563966 -0.2125902
0002a0 8c db a7 3d 18 c9 fb 3c 33 df ce 3e 96 f7 a6 be
       0.08196172 0.030735537 0.40404662 -0.32610768
0002b0 74 1e 19 be 4a 3d 3f 3e 83 54 79 bd 24 14 97 bc
       -0.14953023 0.18675724 -0.060871612 -0.018442221
0002c0 c4 8e 12 bd 8a 31 8e bd 66 78 c0 bb b9 1e 5e bd
       -0.035780683 -0.069430426 -0.0058737276 -0.05422852
0002d0 bb a0 ca bd 54 3d 37 bc 4a a1 96 be 07 e7 ea 3d
       -0.09893938 -0.011184055 -0.2941993 0.11469846
0002e0 75 6c 1a bd c2 9e 82 3d 62 00 02 bd ba e7 c4 bc
       -0.03770109 0.06377937 -0.031738646 -0.024036277
0002f0 d1 31 0c be 45 31 2f 3e 69 5e 97 bd 08 62 85 bd
       -0.13690878 0.17108639 -0.07391054 -0.065128386
000300 99 22 9c 3e e6 1d 63 3e 61 12 26 3d a0 1b 80 be
       0.30495146 0.22179374 0.04054487 -0.25021076
000310 9c 66 61 bc 1d 00 65 3b d2 91 78 be c9 04 43 be
       -0.013757374 0.0034942694 -0.24274376 -0.19044794
000320 44 5a 3e be c8 4c a4 bd a6 14 43 bd ad e0 ae 3d
       -0.18589121 -0.08022457 -0.047627114 0.08538947
000330 94 a1 f8 3d 8f 52 40 bd b3 29 6b bc 5e 46 3f 3d
       0.121401936 -0.046953734 -0.014353204 0.046697967
000340 b3 62 7b bd 13 33 27 bd f7 66 77 3d 62 ee 42 3e
       -0.061373424 -0.040820193 0.06040093 0.19036248
000350 93 9b 2b 3e 91 99 7d 3e f4 1d 9e bc 7e 23 a3 3d
       0.16758566 0.24765612 -0.019301392 0.07965754
000360 77 61 2e be 98 75 de bb c5 af fc 3c 88 3f 40 3c
       -0.17029367 -0.0067889206 0.030845532 0.011733897
000370 79 e2 a2 3c ec f1 c9 3d fe 6c 6d 3d de de ae 3d
       0.019883381 0.09860596 0.05796527 0.08538602
000380 f4 29 c1 bd aa a2 5f bd 54 4e fc bd be cb a6 3c
       -0.0943183 -0.054598488 -0.123196274 0.020360824
000390 c9 51 39 3d 38 f4 4b 3c 5c c1 38 bf c1 44 3e bd
       0.045244012 0.012448363 -0.72170043 -0.046452288
0003a0 4b 2b 7c 3e e0 0d c7 bd 95 eb db be 81 bd 7a be
       0.2462589 -0.09719443 -0.42953172 -0.24486353
0003b0 21 69 0e bd bb ab d0 3d bc 4b 09 bc a5 5b 3d 3e
       -0.034768227 0.10189005 -0.008379873 0.18491991
0003c0 f6 33 a5 3d 10 58 1c bc bb 64 ac 3c 01 56 a4 3d
       0.080665514 -0.00954248 0.021044126 0.080242164
0003d0 99 ac 31 3c 6e 49 f2 bd b4 5d 9a 3e a5 f1 59 be
       0.010844373 -0.11830412 0.30149615 -0.21283586
0003e0 c4 69 0f 3e e4 20 0a be 57 fd 9d 3d ab 23 8c 3c
       0.1400519 -0.1348911 0.07714336 0.017106852
0003f0 12 07 80 bb bb 44 06 be 16 cc df 3c 5a bc 01 be
       -0.003907093 -0.13112156 0.027318995 -0.12669507

fc1.bias f4 [512]
000000 70 a2 64 be f3 5e 83 be b9 10 87 be e7 9d 05 3e
       -0.2232759 -0.25658378 -0.26379946 0.13048516
000010 4b 30 4b be 1a b0 cb be 1f 21 3d 3e af 92 dd be
       -0.19842641 -0.39782792 0.18469666 -0.43275973
000020 aa da 6c be 62 11 6e 3e 39 7d a5 be 71 00 d1 bd
       -0.23130289 0.23248819 -0.323221 -0.10205162
000030 16 cb 64 be 4c f6 a9 3d 43 38 22 be 5e 1f 81 be
       -0.22343096 0.082989305 -0.15841775 -0.25219244
000040 e1 f9 9d 3d c9 de f3 bc da 21 1d be 21 cd ed bd
       0.07713676 -0.029769318 -0.15344945 -0.11611391
000050 7c 93 89 be 91 62 90 bd 07 02 46 bc 35 03 71 be
       -0.26870334 -0.0705005 -0.012085444 -0.2353638
000060 1a e4 03 be fe cc 7c 3d ff c2 79 3e 7d bb 85 3d
       -0.12879983 0.061718933 0.24390791 0.06529901
000070 0e 52 0b bd 0b 6c 80 be f6 7f d2 bd f5 00 8b bd
       -0.0340138 -0.2508243 -0.10278313 -0.06787292
000080 89 01 d1 bd cf f5 31 3e 7c 3d c2 bd f3 e7 04 3e
       -0.10205371 0.17378925 -0.094843835 0.12979107
000090 32 08 de bd 30 86 be be 81 9c 79 bd 36 4d 6f 3d
       -0.10841407 -0.37211752 -0.06094027 0.058423243
0000a0 9c e4 1e 3e 55 d1 55 bd 31 5f 9a bc a4 36 b7 be
       0.15516895 -0.052201588 -0.018844219 -0.35783875
0000b0 f2 4b 23 be 98 da 87 be 53 e3 0b be 44 38 66 bd
       -0.1594694 -0.2653396 -0.13660936 -0.056206003
0000c0 7b 6a f4 bd 82 2d b1 be ff e6 9a bd 17 07 20 be
       -0.11934372 -0.34605032 -0.0756359 -0.15627705
0000d0 16 0b 83 bd ac 77 d0 be 61 49 0d be 4c 76 fa 3d
       -0.06398599 -0.40716302 -0.13797523 0.122295946
0000e0 f3 c2 f2 3b 8b 53 94 be f0 d3 ed 3d d3 02 8a be
       0.0074084937 -0.28969988 0.116126895 -0.2695528
0000f0 d0 d4 d5 be 0c ae a2 be 4d b8 99 be 27 81 bc 3c
       -0.41763926 -0.31773412 -0.30023423 0.023010803
000100 89 ba 3c 3e f2 a9 a0 3b be d7 86 bd ec 7b 39 be
       0.18430533 0.0049030716 -0.06584118 -0.18113679
000110 ba 0b ae bd 4a 44 33 be 0e ae aa be f7 bf 3d 3d
       -0.084983304 -0.17506519 -0.33335918 0.04632565
000120 a0 74 05 be 58 84 13 bd 04 90 16 3e 7f ad e3 bc
       -0.1303277 -0.036014885 0.14703375 -0.02779269
000130 e3 03 59 be 0e 05 08 be 54 62 ae 3d b6 29 6b be
       -0.21192889 -0.13283178 0.08514848 -0.2296513
000140 7a b5 19 3d 9e 59 63 bd d7 c1 22 be c5 9b 0d be
       0.037526585 -0.055505387 -0.15894257 -0.13828953
000150 f1 b1 84 3d 99 cf 4b be 94 77 b8 bc c2 25 4e bd
       0.06479252 -0.19903411 -0.022517957 -0.050328977
000160 cc b5 a5 be e4 5f 00 be 7e 77 05 be 8f 97 16 be
       -0.32365263 -0.1253658 -0.13033864 -0.14706253
000170 a7 f0 05 3e 85 b7 91 bc 9a 74 88 be 50 78 90 be
       0.13080083 -0.017787704 -0.2665146 -0.2821679
000180 08 95 da bd 9b 85 cd bd ab 46 22 3e fb cd aa bd
       -0.10672957 -0.10035249 0.1584727 -0.08340069
000190 9d aa de bc ad de 9a bd 8c 53 d7 bd d5 b8 d2 bd
       -0.027180964 -0.07562003 -0.10513982 -0.1028916
0001a0 cb ac b9 be 7f cb 4c be 4b 08 8e bd 2e 00 16 3e
       -0.36264643 -0.19999503 -0.069351755 0.14648506
0001b0 d8 05 24 be 3a 0f 4e be b1 b6 4a 3e 0a b0 1d be
       -0.16017854 -0.20122996 0.19796254 -0.15399185
0001c0 12 6e 41 bd b9 7b 36 3d 20 6e 29 bd 50 e0 ca bd
       -0.04722411 0.044551585 -0.04136479 -0.099060655
0001d0 99 56 b8 bd 20 5d cd 3d 36 5f 03 be 1f 29 33 be
       -0.09000892 0.10027528 -0.12829289 -0.17496155
0001e0 1a c6 81 be 9e 71 fd bc 66 a3 20 be 6f 2b d6 bd
       -0.25346452 -0.030937966 -0.15687332 -0.10457503
0001f0 39 fc 8f bd 50 4b 82 bd 7d fc 6b 3d 8f e7 e5 bd
       -0.070305295 -0.06362021 0.05761384 -0.11225807
000200 a3 d0 40 be bc 2d be 3d ba 47 3d be f9 52 e7 bd
       -0.18829589 0.09286067 -0.18484393 -0.11295123
000210 9c b5 30 3c 44 fb 45 be 7e ee 54 3c 7d 91 1e 3d
       0.010785487 -0.19334131 0.012996314 0.038712967
000220 58 36 79 3e 04 b9 07 bd bd 1c 8f 3d 9d 8e 4e be
       0.24337137 -0.03313543 0.06987903 -0.2017159
000230 f6 83 99 3e fc 71 8c be 1d da c3 bc 4a b4 18 be
       0.2998349 -0.27430713 -0.023907715 -0.14912525
000240 27 fa 88 3d a0 7d d4 3c 35 9b 6e be fb a8 38 be
       0.06688338 0.025938809 -0.23301394 -0.18033211
000250 16 1c 7f be 5c 61 57 be 0d 8e 2a be 76 58 51 be
       -0.24913058 -0.21033233 -0.1665575 -0.20443901
000260 d5 de 27 bd d4 89 1e bd 4b a4 10 bd 77 ab 46 bd
       -0.040983994 -0.038705662 -0.035312932 -0.048503365
000270 b7 7a 11 be 00 9f 28 be 4d 64 aa bd d5 8e 19 be
       -0.14206968 -0.16466904 -0.08319912 -0.14995892
000280 54 54 38 be 1b c2 38 be 7c e6 92 bc db 6e e3 3d
       -0.18000919 -0.18042795 -0.01793217 0.111051284
000290 2c ab 46 be a9 53 3a be 9d 49 8f be 9b 2b c0 3c
       -0.19401234 -0.18195976 -0.2798585 0.023458293
0002a0 f4 29 61 be 54 c8 0e be 13 ac 62 be 36 80 08 be
       -0.2198866 -0.13943607 -0.22135954 -0.13330159
0002b0 c7 6c 89 3d 49 94 17 3e 16 f4 80 be e6 c3 55 bd
       0.06710201 0.1480266 -0.25186223 -0.052188776
0002c0 57 d0 b6 be 10 4a 7a be 81 6e d3 3e dc 50 8c bd
       -0.35705826 -0.24442315 0.41295245 -0.0685136
0002d0 b0 0c a7 bc 5b b9 59 3e e8 3e ee bd fa c3 91 be
       -0.020391792 0.21262114 -0.11633092 -0.2846983
0002e0 08 01 9c be 1d 0d e4 3d 71 05 da bd 18 12 2c 3e
       -0.30469537 0.11135314 -0.10645569 0.16803777
0002f0 97 e3 bb be 7f 1b 0c 3e d8 a9 46 be 5c 71 3c be
       -0.36697075 0.13682364 -0.19400728 -0.18402618
000300 d9 fe a9 be 34 49 39 3d b8 6d ef 3b 99 d7 67 be
       -0.33202246 0.045235828 0.0073067807 -0.22640838
000310 ac ba 9a 3c 38 35 24 3e ac 3b ac bb cd e9 7d be
       0.01888784 0.16035926 -0.005256137 -0.24796219
000320 76 ed 42 be ba 54 79 3b 08 87 9a be ab fe c2 bd
       -0.19035897 0.0038044886 -0.30181146 -0.0952123
000330 8b ea 3a bd 3c 0b 39 be ef a7 c8 bd f5 3a 39 be
       -0.045633834 -0.18070692 -0.09797656 -0.18088897
000340 29 0d bf bd 85 f3 07 3e ef b9 95 be 81 51 ac be
       -0.09328682 0.13276489 -0.2924342 -0.33655933
000350 be eb 63 be 2c 2c b5 bd ee 3e 01 bd f3 62 5e bd
       -0.22257897 -0.08846316 -0.031554155 -0.054293584
000360 d5 51 10 bd 05 be 1f be e9 62 7e be 6d f3 b9 bd
       -0.03523429 -0.1559983 -0.24842419 -0.09079633
000370 51 ef 25 be 7a 81 d6 bc 53 37 bf be 73 2d 68 bd
       -0.16204573 -0.026184786 -0.37346897 -0.05668397
000380 3b d4 02 be b5 06 2d 3e d4 7f e2 bd 19 db a3 bc
       -0.12776272 0.1689709 -0.110595375 -0.020001935
000390 d8 95 9b bd 2b 3f a9 3d c7 cc 96 be e7 ea ca bd
       -0.0759694 0.082640015 -0.29453108 -0.09908085
0003a0 72 8d 4a be e1 9e 54 3d 3c a2 72 bd a2 02 82 3b
       -0.1978052 0.05190933 -0.05923675 0.003967599
0003b0 59 b9 44 be 51 b5 0b 3e 3c eb 00 be c3 3a 8b be
       -0.1921133 0.13643385 -0.12589735 -0.2719327
0003c0 e6 cf a4 bc 25 bb 47 be 15 e2 9c bd b0 c4 ca 3d
       -0.020118665 -0.19504984 -0.07660309 0.099007964
0003d0 49 68 0e be 9b 2f dd bd 2d 61 ed 3d ca f4 1b be
       -0.13906969 -0.10800096 0.115908004 -0.15230098
0003e0 23 50 13 be 4b e5 07 3c 8d 6e 2f be 69 9c 8e be
       -0.14386038 0.008294414 -0.17132016 -0.27853706
0003f0 c2 5d 4f bd 44 68 ff bd 20 f0 2b be 8d f6 5d be
       -0.050626524 -0.12471059 -0.16790819 -0.21676083

fc2.weight f4 [256, 512]
000000 c6 8d 01 be ea 45 00 bb ba 52 1a 3e 6f 40 43 3d
       -0.12651739 -0.0019572922 0.1507062 0.04766887
000010 55 b5 29 3e 53 7d 88 bd 05 73 5d bd b1 71 15 3e
       0.16573079 -0.06664529 -0.05406477 0.14594151
000020 82 72 6c 3e 5e ec 39 3a 34 63 51 be 72 78 04 bd
       0.23090556 0.00070924114 -0.20447999 -0.032341428
000030 77 d5 c2 bd 83 63 e6 bd ba c4 6a be 1c 09 a0 be
       -0.095133714 -0.11249449 -0.22926608 -0.3125695
000040 5d 8b 39 3d 8d 5b 93 bd 04 60 88 be 53 95 0e 3e
       0.045298923 -0.07195196 -0.26635754 0.1392415
000050 61 a0 24 3d 9d 26 55 3b fe f9 52 bd 22 27 47 bd
       0.04019201 0.0032524236 -0.051507942 -0.048621304
000060 33 ce ee 3d 2d 36 0f be ff 7e db bd 6c 24 d9 bc
       0.11660423 -0.1398551 -0.10717582 -0.026506625
000070 b0 34 5d 3e e1 3f 3f 3e f1 7e 37 3e 39 0b 89 3a
       0.2160213 0.18676712 0.17919518 0.0010455615
000080 70 6f f1 be f1 d8 f6 3d cd f0 24 3d 13 c6 0c 3b
       -0.47155333 0.12053097 0.040268708 0.0021480366
000090 47 a6 8b be 50 a4 73 be a8 0d 3a 3d 8b e4 a6 3d
       -0.27275297 -0.23793149 0.04542318 0.0814906
0000a0 3d 15 3c be 6f fe a7 be 45 27 6a bd 6c f5 27 3e
       -0.18367477 -0.32811305 -0.057166357 0.16402215
0000b0 a5 fa 3a 3e 56 0b d1 bd d7 95 19 3e 9b 72 e8 3d
       0.18259676 -0.1020724 0.14998566 0.11349984
0000c0 ec 63 6c 3e fe 6d 9a bd 9f b8 0f bd bd 7b c1 be
       0.23084992 -0.075405106 -0.035088178 -0.37789717
0000d0 81 5a f7 bc 43 3a 87 3e ca f1 3f be d5 69 30 be
       -0.030194523 0.26411638 -0.18744579 -0.17227872
0000e0 0e 01 a6 3e cc 4e da be f7 ee 14 3e dc bf 9f be
       0.3242268 -0.42638242 0.14544283 -0.31201065
0000f0 47 4c e7 3e de d2 30 3d c0 ee c6 3b 90 0e df 3d
       0.45175382 0.04316985 0.0060709417 0.108914495
000100 ef 54 a3 be e7 47 a5 bd cf 0d 29 3e 19 85 e0 3d
       -0.31900737 -0.08070355 0.16509174 0.10962886
000110 a9 80 6d 3e e0 bf da bd 62 8d 88 be 55 e6 b3 bd
       0.23193611 -0.106811285 -0.26670367 -0.08784167
000120 87 c5 3a 3e b7 cf 9a bc b7 dc 21 3d 92 70 8d 3e
       0.18239413 -0.018897874 0.03951713 0.27624947
000130 7d 27 ad 3d 89 2b db bd 6d 98 b5 3d 58 93 59 3e
       0.084547974 -0.10701663 0.088669635 0.21247613
000140 69 57 0e 3e 44 2b 8f 3e c9 15 2e be 75 3a da 3d
       0.13900532 0.27962697 -0.17000498 0.10655681
000150 cb d0 69 3e ab 31 a9 bb 50 54 cb bc 3c 55 a8 3e
       0.22833554 -0.0051633916 -0.024820477 0.3287753
000160 c1 31 7a be c7 15 ff 3c f3 a1 36 be fd e5 1d bd
       -0.24433042 0.031138314 -0.17835216 -0.038549412
000170 3e 86 05 3e df f7 23 be ce f4 08 3e fe 4a c6 bd
       0.1303949 -0.16012524 0.13374636 -0.096822724
000180 e5 93 61 3e af da d7 3c 6c cb e9 bd 9f 15 58 be
       0.22029074 0.026349394 -0.11415753 -0.21101998
000190 d2 db c1 3d e0 f0 0a 3e a1 22 87 3c 80 09 1a 3d
       0.094657555 0.13568449 0.016496005 0.037606716
0001a0 4f 8f 6a 3e 10 2f bb 3d b2 10 02 3e 39 b3 17 3e
       0.2290623 0.09139836 0.12701681 0.14814462
0001b0 66 5a 90 bd 7a fd a5 be 22 b8 eb bd 9e 31 d1 bd
       -0.07048492 -0.3241995 -0.1150973 -0.10214542
0001c0 25 32 29 3e 2a 7a c0 3d 07 80 88 bd 3e b0 ca bd
       0.16523035 0.09398301 -0.06665044 -0.09896897
0001d0 3a cb 32 3e c9 ae ce 3b d7 08 6f 3c d2 fb 18 3e
       0.17460337 0.006307457 0.01458951 0.14939812
0001e0 a5 1a 94 bd 98 29 25 be 8f 6e 24 3e a0 fd 2d be
       -0.072316445 -0.16129148 0.160578 -0.16991282
0001f0 77 b5 d2 3b 19 17 cb bd e1 cb bc bc 3c 25 66 3c
       0.0064303237 -0.09916515 -0.023046436 0.014046963
000200 16 b5 91 3b 78 57 ed 3d e0 ac 7e bd 9c 98 18 3d
       0.004446636 0.11588949 -0.062176585 0.037254915
000210 58 1b 5f be db 71 40 3e 20 b7 46 3e 6b 8b 86 bc
       -0.21787775 0.18793432 0.19405794 -0.016423902
000220 09 50 d1 3d 02 1f 48 bc 2e 26 e8 bd 69 d2 4d 3d
       0.102203436 -0.012214424 -0.11335407 0.05024949
000230 15 a7 09 bf 36 c2 a0 3d b6 5f 46 3c d9 94 99 bd
       -0.5377057 0.07849543 0.01210778 -0.074990936
000240 ed 2a 80 be d0 28 59 be 22 fb 0b be 14 b0 10 be
       -0.2503275 -0.21206975 -0.13670018 -0.14129668
000250 56 68 bf bd 54 94 04 3d 90 85 58 3e 33 5c ad 3d
       -0.093460724 0.03236802 0.211447 0.08464851
000260 c8 41 2e bc f3 77 42 bc 4a 07 f2 bd cb 35 82 3c
       -0.010635801 -0.011869418 -0.118177965 0.015894791
000270 31 40 c2 3e 1a bd d1 bd bb a5 ff bd 14 2b 9c 3e
       0.379396 -0.102411464 -0.124827825 0.30501616
000280 e1 eb 0e 3e f4 3b dd bd cb 2b 12 be c8 89 17 3e
       0.13957168 -0.10802451 -0.14274518 0.14798653
000290 a5 46 64 3e 95 3d 37 3e 42 4c 53 3e b9 f2 53 be
       0.22292574 0.17894585 0.20634559 -0.2069806
0002a0 17 56 0a be a9 eb b1 bd 48 c6 7e be 2a f9 b7 bc
       -0.13509403 -0.08687527 -0.24880326 -0.022457678
0002b0 3d db 7e 3d 72 4b 08 be 5e d9 59 3e d6 14 2e be
       0.0622208 -0.1331003 0.21274325 -0.17000136
0002c0 93 59 43 bd b8 bf 3a 3e 0c 54 90 bd 31 f0 2b 3e
       -0.047692847 0.18237197 -0.07047281 0.16790845
0002d0 6e 68 a0 be 67 35 1c 3e 12 65 3d 3d e7 a8 10 3d
       -0.31329674 0.15254746 0.046238966 0.035317328
0002e0 ca 15 be bc ff 97 60 be 86 47 50 3e 85 f3 98 be
       -0.02320375 -0.21932982 0.20339784 -0.2987329
0002f0 b5 bf 45 be 95 65 bf bd 54 d6 1e be 85 ad 85 3e
       -0.19311412 -0.09345547 -0.15511447 0.26108947
000300 4f 65 6c be b9 d6 04 3d 66 19 5e 3d 37 93 53 be
       -0.23085521 0.032431338 0.05422344 -0.20661627
000310 1c 9e 47 3c aa 7c bb bd 1c d7 d0 3d 09 a5 5f bc
       0.012183692 -0.09154637 0.10197279 -0.013650187
000320 84 63 16 bd 7a 25 bd 3e 73 a5 42 be 9e 78 cf 3d
       -0.036716 0.36942655 -0.19008426 0.10130428
000330 89 f3 10 be 83 cb 6c bd 2b 12 61 3d 41 81 39 3e
       -0.14155401 -0.05781127 0.054948967 0.18115713
000340 8c bb 81 3e 9a 51 21 be 85 2d 17 bb cb 9b ad 3e
       0.253384 -0.15753785 -0.0023067903 0.33907923
000350 5c d4 98 3e 5d 29 90 3d fe d8 1f 3e e8 fd 0c 3e
       0.29849517 0.070391394 0.1561012 0.13768733
000360 d9 24 21 3e 61 b2 8a bd 32 9e 11 3e 42 72 11 3c
       0.15736713 -0.06772304 0.14220503 0.008877339
000370 cd ce 8e be 4e a5 21 be a9 58 0f 3e e1 8a d5 bd
       -0.2789215 -0.15785715 0.13998665 -0.1042688
000380 8c 3f 69 be 29 38 9e bd 15 f0 96 bd ce 30 0b 3e
       -0.22778147 -0.077255554 -0.07370011 0.13592836
000390 3e 1c b4 3d fc 1a c9 3d 65 91 56 3d e2 d7 58 3e
       0.08794449 0.098196 0.052384753 0.21176103
0003a0 07 0b 1d 3e aa 50 aa 3d 00 e6 9f 3d 80 8f 23 3e
       0.15336238 0.08316167 0.07807541 0.1597271
0003b0 c6 1d ec bd 28 46 09 be 21 f1 13 be 39 fc 06 bd
       -0.11529116 -0.13405669 -0.14447452 -0.032955382
0003c0 2d 8b 95 bd f8 17 1f be b2 f1 da 3d 85 f7 cf be
       -0.07301936 -0.15536487 0.10690631 -0.4061853
0003d0 f0 6b 9d 3d d0 ad 11 bf 27 b2 60 3e 5c 5d 12 be
       0.07686603 -0.5690584 0.2194296 -0.14293426
0003e0 3b 85 5e 3e e5 89 65 3e b0 79 69 bd 68 9c e9 be
       0.21730511 0.22415884 -0.057000816 -0.4562714
0003f0 da ac eb 3d a4 a9 5c 3d 05 58 72 be ec b6 15 3e
       0.11507578 0.05387272 -0.2366639 0.1462056

fc2.bias f4 [256]
000000 1c 25 1f bd b5 56 25 bd 43 a2 af bc 0a 1f ee bc
       -0.03885375 -0.040365893 -0.021439677 -0.029067535
000010 b1 41 ef bd ca 77 65 3d cc 06 31 bd 56 9a 0d bd
       -0.116824515 0.056022443 -0.043219373 -0.034571014
000020 69 29 f9 bc ac b6 39 3d 84 0c 28 bd a5 b3 9e bd
       -0.030415254 0.045340225 -0.04102756 -0.07749108
000030 72 41 48 3d e6 84 5e 3d b5 23 3c bd 21 86 a4 3d
       0.04889054 0.05432596 -0.04593249 0.080333956
000040 9c ee 6b bd 86 8e b2 3d eb 8d 87 bd 26 2e 11 be
       -0.057600603 0.087185904 -0.066188656 -0.1417776
000050 e6 ba 35 be 5e 2f dc 3d 08 64 1b bc db 3a 49 3d
       -0.17747077 0.10751222 -0.0094842985 0.049128395
000060 9b 9d 97 3d df 48 01 be 77 cd 01 3d 70 81 d9 bc
       0.07403108 -0.12625454 0.031690087 -0.026550978
000070 fb 9f 91 bd 2e d8 91 bd 57 5c 1a be ba ba 02 bd
       -0.07110592 -0.07121311 -0.15074287 -0.031916358
000080 76 de a6 bd 1a 00 7b b5 a3 c7 33 bd 7a 96 f1 bd
       -0.081479 -9.3504934e-07 -0.04389156 -0.11796279
000090 2e 7c f5 bd d9 d0 f6 bd 80 33 08 3c 8e 55 54 3d
       -0.11986576 -0.12051553 0.00831306 0.051839404
0000a0 50 d4 54 be ce 93 af bd 08 d7 b9 bb 0c dd 09 bd
       -0.20784116 -0.085731134 -0.0056713857 -0.033658072
0000b0 cf b4 19 be 0f e7 e4 bc 73 fb 94 bd 38 75 1f be
       -0.15010379 -0.027942209 -0.07274523 -0.15572059
0000c0 20 16 2d 3d d1 b9 d0 3d 3b 60 61 bd 7e 58 2d 3d
       0.04225743 0.10191692 -0.055023413 0.04232072
0000d0 8e e0 fd bd 7b d6 8d 3d e7 4e 25 be ed f3 71 bd
       -0.12396346 0.069256745 -0.1614338 -0.059070516
0000e0 bf 5e 59 3d 0f e9 b5 bd 6f c5 38 3e d2 d4 08 bd
       0.053068873 -0.08882343 0.18044065 -0.033406086
0000f0 77 65 6a bd df a3 72 be 82 2c 5f bd ce 1b 6f bd
       -0.05722567 -0.23695324 -0.054485805 -0.058376126
000100 9f a9 85 bc ea ef cc bd 4b fe 04 be 09 6f a1 bd
       -0.016316233 -0.100066975 -0.1298763 -0.078825064
000110 1e e7 02 be 1b 93 d6 bc 37 9e a4 bd 93 45 73 bd
       -0.12783477 -0.026193192 -0.080379896 -0.059392523
000120 32 c7 89 3d 4e bb 37 bd fd a8 76 bd 9c b1 e4 bd
       0.067274466 -0.044856362 -0.060219754 -0.11166689
000130 d2 2b 2e bd d6 7b 0b bd 49 f2 1c 3d a4 8f c3 bc
       -0.04252226 -0.034053646 0.038317 -0.023872204
000140 d7 f3 13 3c 54 7b 3b be a5 07 02 bd 9d 43 5a 3d
       0.009030304 -0.18308765 -0.03174557 0.053287137
000150 1b c1 04 bc f9 6d b9 3d 15 05 2a bd 26 b8 a0 bc
       -0.008102681 0.09054179 -0.041508753 -0.019619059
000160 df 10 17 be e0 07 18 bd ee 16 70 bd f3 6f 10 3d
       -0.1475253 -0.037116885 -0.058615617 0.035263013
000170 88 0b 69 bc d1 05 39 3d 72 00 cc bc bb 19 99 3d
       -0.014223941 0.045171563 -0.024902556 0.07475611
000180 f9 2e 02 3d aa bd 46 bd 6a 77 38 be 7b cd c4 b9
       0.031783078 -0.04852072 -0.18014303 -0.00037537128
000190 7b b6 67 bd c7 a8 f0 bd 86 a9 d8 bd ea c9 c8 bd
       -0.05657051 -0.11750942 -0.10579209 -0.09804137
0001a0 7d fa f0 bd 92 84 19 3d ba 16 3e 3d dc 70 37 be
       -0.11766527 0.037479945 0.046408392 -0.17914146
0001b0 9c 83 ef bd 76 b4 85 bc 42 e2 97 3d 6b 5f 9c bd
       -0.11695024 -0.016321402 0.07416202 -0.07635387
0001c0 2f 32 bf bc ab 78 6b be c0 43 53 be 41 69 f8 3c
       -0.02333936 -0.2299525 -0.20631313 0.030323626
0001d0 9d 73 99 bd 8d 2e ee bd 64 99 2b be 84 4e 51 bd
       -0.074927546 -0.116299726 -0.16757733 -0.05110027
0001e0 6c f6 2f bd 38 37 04 be 23 02 3b bd b5 21 c3 bd
       -0.042959616 -0.1291169 -0.045656335 -0.095279135
0001f0 88 c9 7c bd 18 f2 37 bd 73 bc 57 3d 0e 9f f0 3d
       -0.061715633 -0.044908613 0.052669954 0.11749087
000200 34 8e 07 be c3 b9 d1 3d 12 e9 9e bb 73 d8 0b 3d
       -0.1323784 0.10240509 -0.0048495615 0.03414197
000210 f1 af 3f be a0 f3 41 bd 6a 07 35 bd c5 40 03 bd
       -0.1871946 -0.04735148 -0.044196524 -0.03204419
000220 65 99 f5 bd 93 1c b6 bd c6 fb 12 be 96 6c a5 bc
       -0.11992148 -0.08892169 -0.14353856 -0.02019338
000230 37 f9 f7 bc 5a 44 3b bd 9d ca e5 bd 0a 23 6a 3c
       -0.030270202 -0.045719482 -0.11220286 0.0142905805
000240 eb 18 ec bd 9b bd bd 3d 9a 1a 5d 3d 1a 88 e9 bd
       -0.1152819 0.0926468 0.053980447 -0.114029124
000250 ae 4c 04 be ab cd 41 3d 46 ca e3 bc b7 41 91 3d
       -0.12919876 0.04731528 -0.027806412 0.07092612
000260 7b 79 45 3d 8d a2 27 be eb b8 33 bd 63 7c 47 3e
       0.048211556 -0.16370602 -0.043877523 0.19481044
000270 2a fb 16 bd b9 b3 a9 3d f3 a3 39 3d d1 4d 99 3c
       -0.036860622 0.082862325 0.04532237 0.018713864
000280 8a 3d 53 be 68 16 0f 3d 76 f1 ea bd 2c 7d ca bc
       -0.20628944 0.034933478 -0.11471836 -0.02471789
000290 89 d1 ff bc 80 47 e8 3c aa 25 a0 bc a7 e6 10 3e
       -0.031227844 0.028354406 -0.01954921 0.14150487
0002a0 d3 ad cd bc da 60 11 be 4e cc 70 3d b0 65 cb bd
       -0.0251073 -0.14197102 0.05878859 -0.09931505
0002b0 02 11 34 3a f4 4a eb 3d 3c f7 a5 bd 90 d7 a8 bc
       0.00068689894 0.114889055 -0.08103797 -0.0206106
0002c0 a5 77 53 3d 3c 6c 43 3d 19 8d a8 bd 97 41 c9 bd
       0.051627774 0.047710642 -0.08230037 -0.098269634
0002d0 df 66 45 be 56 4a 2e be 3e ec bb bd db 93 c7 3c
       -0.19277523 -0.17020544 -0.09175919 0.024362495
0002e0 34 8e 2d bd 25 59 0f bc 8a 1b 5d bd 1e cc 58 bd
       -0.042371944 -0.008749281 -0.05398134 -0.052929036
0002f0 e2 08 e1 3b 27 d0 34 bd ca 56 10 bb 58 a5 8f 3c
       0.006867514 -0.044143822 -0.0022024387 0.017534897
000300 ae 31 67 3c 6d 47 87 bd dd ef ac bc 9b a9 84 bd
       0.014110966 -0.0660542 -0.02111047 -0.06477662
000310 72 d4 f1 bc 26 c8 86 be e0 b9 ea bd 5a 59 d3 b8
       -0.029520247 -0.26324576 -0.11461234 -0.00010077907
000320 6d 56 8f bd 32 be d6 bd 80 dc 08 3e af 2e 8e bc
       -0.06998906 -0.104854956 0.13365364 -0.017356245
000330 c1 22 f0 bd b9 8d 5c bc c4 35 56 3c 6e 4f 60 3d
       -0.11725379 -0.013461524 0.013074342 0.05476325
000340 55 eb 24 be 78 74 c8 bd 02 0f de bc a3 d1 33 bd
       -0.16105397 -0.0978784 -0.027106766 -0.043901097
000350 ba 72 45 3c 62 15 90 bd 73 a4 96 bd 26 c9 7f bd
       0.012051279 -0.070353284 -0.07355585 -0.06244769
000360 09 e2 2b 3d 30 db f6 bd 39 ee e5 bd f1 3f 43 bc
       0.04196361 -0.120535254 -0.11227078 -0.0119171
000370 da bd 3d bd 40 27 8d be 03 6e c1 bd 30 27 30 bd
       -0.046323635 -0.27569008 -0.09444811 -0.043006122
000380 fc b2 4e 3d e8 a1 71 3d ad 40 06 be 8d f9 a6 bd
       0.05046366 0.058992296 -0.1311061 -0.08153067
000390 86 eb dd 3c 4f 22 bd be 14 94 11 bb 76 91 20 be
       0.027089845 -0.36940238 -0.0022213506 -0.15680489
0003a0 18 db 04 3d c6 48 25 3d a8 85 60 bd 58 31 7f bd
       0.032435507 0.040352605 -0.054814965 -0.062302917
0003b0 43 b3 30 3d d8 c4 49 3d 07 c7 ed bd 28 cd b4 bd
       0.043139707 0.04925999 -0.11610227 -0.08828193
0003c0 05 14 ac bd 0a d9 92 3d ef f6 c1 bd 85 1f 17 bd
       -0.08402256 0.07170303 -0.09470927 -0.036895294
0003d0 4a 86 ab 3c 57 eb 2a be 2d 14 e5 3c 77 e5 12 bc
       0.020938057 -0.16691338 0.027963722 -0.0089658415
0003e0 b7 80 b0 3c 29 3c 9c 3d 54 b3 1b be ea 16 4a 3d
       0.021545751 0.07628662 -0.15205127 0.04933826
0003f0 72 ba d4 bc 6d 90 81 3b b8 0b c5 bd 62 f4 3a bd
       -0.02596781 0.0039539845 -0.09621376 -0.045643218

fc3.weight f4 [4, 256]
000000 85 ef c8 3d 2a 62 93 3e 4f da da 3e 3c 5b 63 3d
       0.0981131 0.2878583 0.4274468 0.05550693
000010 47 b8 95 be d9 86 8c 3c c4 dd 61 be a0 81 13 bf
       -0.29242155 0.017154144 -0.22057253 -0.5761967
000020 c9 7c 0a 3f 94 d9 48 3d 2b 11 58 3e f6 5b 13 3e
       0.5409666 0.049035624 0.21100299 0.14390549
000030 d3 18 45 3f 63 b7 18 be dc 9e 97 3e b0 38 20 bf
       0.76991004 -0.14913706 0.29613388 -0.625865
000040 99 5b b8 3e f0 0d 2d bf bb e4 fc bc b7 bb 67 bd
       0.36007383 -0.6759939 -0.030870786 -0.056575503
000050 ff 30 d8 bd 30 58 77 be cc f0 79 bf 04 f5 10 bf
       -0.1055622 -0.24154735 -0.9763305 -0.56623864
000060 69 6e 74 be d6 6e e1 3e 3b 75 74 3e 52 e6 f4 bd
       -0.23870243 0.44029874 0.23872845 -0.119579926
000070 66 61 65 be 45 3e 3c 3d a5 5b 98 be 44 09 02 bf
       -0.22400436 0.045957822 -0.2975742 -0.5079539
000080 47 4a c9 be d7 dd 80 3e 6a b3 0a 3c 52 41 c6 be
       -0.39314482 0.2516925 0.008465627 -0.3872171
000090 81 bf 00 bf e6 9d 99 3d 1c e9 5e 3e a2 2b 5d 3e
       -0.5029221 0.0750082 0.21768612 0.21598676
0000a0 75 b5 ac 3e fb 47 d2 be ce 19 7f bd 21 a3 cc be
       0.3373219 -0.41070542 -0.06228047 -0.39968207
0000b0 6f 8f 6e 3e 17 83 0d 3e 07 a1 f8 bc de 7a c8 bd
       0.23296903 0.13819538 -0.030350221 -0.0978906
0000c0 39 a0 d1 bd 66 1f 36 bd 66 b9 15 3f 42 b0 4d 3e
       -0.10235638 -0.044463538 0.5848602 0.20086768
0000d0 7e ed 61 bf e7 12 76 3e 53 f2 8b bd 31 cb aa be
       -0.8825301 0.24030648 -0.06833329 -0.33358148
0000e0 e5 48 48 3e df 8d f7 be cf 51 e3 be 27 3f 47 3c
       0.19559057 -0.48350427 -0.44398353 0.012161053
0000f0 da dc db bd d2 6e a3 3e d1 a0 7c bd bb 08 40 bf
       -0.107354835 0.31920487 -0.061676804 -0.7501332
000100 d1 41 5d be 94 bc 31 3e 26 b5 19 3f f3 60 b6 3e
       -0.21607138 0.17357093 0.60042036 0.3562084
000110 7f 19 bd 3e 61 2f 68 be 66 75 e6 3e 8e cb 49 bd
       0.36933514 -0.22674324 0.45011443 -0.04926639
000120 48 cf b4 bc 6b c4 02 bd 67 01 39 3f 8c c1 db be
       -0.022071496 -0.0319256 0.72267765 -0.42921102
000130 23 74 0f bf 2a fc 84 3e be 06 cb be c2 2a 0c bd
       -0.56036586 0.25973636 -0.3965358 -0.034220465
000140 bf 40 bc 3d 29 89 48 bf 66 c8 7e bc 32 81 32 3e
       0.09192037 -0.7833429 -0.015550708 0.17432097
000150 a1 7a e6 be 36 6d b0 bc b0 2c c4 be a6 7d a9 bb
       -0.45015433 -0.02153645 -0.38315344 -0.005172449
000160 14 83 95 be b2 a9 00 3d d6 47 8a be 03 17 d6 bd
       -0.29201567 0.031411834 -0.2700793 -0.10453608
000170 74 50 0e 3f bc fc 7b 3b 82 a5 b9 bc 23 61 33 3e
       0.5559151 0.0038450202 -0.022661928 0.17517523
000180 42 c0 2e be a4 fb 0d bf 2d 6f 1e 3f 67 7d 4f bf
       -0.17065528 -0.554621 0.6188839 -0.81050724
000190 88 a2 b3 be c8 04 b7 3d a8 3e 14 bf 2f 44 47 3f
       -0.3508494 0.08936459 -0.57908106 0.77838415
0001a0 f9 8b 8d 3d 8e 7a 8b be f3 89 b1 bc 91 7f 60 bf
       0.06911463 -0.2724194 -0.021672225 -0.8769465
0001b0 60 d0 3f 3e 62 89 45 be 86 65 95 be da f0 9d be
       0.18731833 -0.19290689 -0.2917902 -0.30847818
0001c0 63 73 17 bf 00 8d 76 3f 0f 54 b2 bd c6 07 84 be
       -0.5916044 0.963089 -0.08707439 -0.2578718
0001d0 4c a3 52 bb 16 60 62 bd 63 9b 33 bf 69 41 72 be
       -0.003214079 -0.055267416 -0.70158976 -0.23657764
0001e0 5c 6d c3 bc 85 58 89 3f ab 4c f2 3e 31 1b 3e bf
       -0.023855858 1.0730139 0.47324118 -0.7426024
0001f0 e2 94 ab 3d dd dd 11 bf 63 86 11 3f 62 20 e2 be
       0.083780065 -0.5697916 0.5684568 -0.4416533
000200 ac 8d 5d be 98 16 92 3e 84 75 63 3e 0a 50 81 3e
       -0.21636075 0.28532863 0.22212797 0.25256377
000210 a7 03 6c 3e 29 37 f1 3e 80 3b 28 bf 45 87 aa 3d
       0.23048268 0.47112396 -0.6571579 0.08326582
000220 b4 c2 49 bf 23 66 80 3e 99 39 ed be 46 42 52 be
       -0.7881272 0.25077924 -0.46333006 -0.20533094
000230 ad 90 91 be 6d ad 09 3f ac a3 24 bf 77 d9 04 3f
       -0.2843069 0.5378025 -0.64312243 0.51894325
000240 5c 8d 82 3d 58 e9 50 3e d7 b5 ef 3d ad 59 14 3f
       0.063746184 0.20401514 0.11704605 0.57949334
000250 a2 8d e8 3c 8c c0 8a be cd dd 2d bf 41 66 6f 3e
       0.028387848 -0.27100027 -0.67916566 0.2337885
000260 ef 32 75 bd cd 76 28 be b2 e8 85 3e ea ff 41 3e
       -0.059863027 -0.16451569 0.26154095 0.1894528
000270 90 13 02 bf c7 11 c8 bd 83 83 93 3e 81 67 94 be
       -0.508111 -0.09769016 0.28811273 -0.28985217
000280 f9 2a 23 3f 66 39 60 bf cd cb fe 3b 4f 16 44 be
       0.63737446 -0.87587583 0.00777576 -0.19149135
000290 19 8a a2 3e 80 53 3f 3c 4f 89 1d 3f 5a a8 36 3e
       0.31745985 0.011677623 0.6153764 0.17837659
0002a0 32 13 98 3e 09 57 05 be c1 15 85 3d 87 16 74 be
       0.29702145 -0.13021483 0.0649829 -0.23836718
0002b0 87 69 97 be ab ba 9d bd 4a 55 79 3e 4f 61 e0 3c
       -0.29572698 -0.0770162 0.24348941 0.02739015
0002c0 81 7b 0f 3d 9d 89 d7 3e 0b 67 60 3e 27 ce 2b 3f
       0.035029892 0.42097178 0.21914308 0.6711144
0002d0 45 fc 7a 3f 5b 93 bc bd d7 5e 36 be 93 a1 13 bf
       0.9804118 -0.09207793 -0.17809616 -0.5766842
0002e0 16 37 05 be 1f ee 11 bf a3 b7 d6 be f2 4d 50 3d
       -0.13009295 -0.5700397 -0.4193698 0.050855584
0002f0 3a 19 ac be ca bd ca 3d 55 94 f8 bd 7a d0 ce 3d
       -0.33612996 0.09899481 -0.12137667 0.100983575
000300 02 a3 9d be 16 4d 06 bd 97 d6 cb be f9 6d 41 3e
       -0.30788428 -0.03278836 -0.39812157 0.18889607
000310 65 60 1c bf 27 cb 5b 3f f5 a2 00 3e 31 c4 75 be
       -0.61084586 0.8585686 0.12562163 -0.24000622
000320 ac 7b 56 bd 60 79 41 3f 2d 37 c3 be 25 eb 2e 3e
       -0.052364036 0.7557583 -0.38128033 0.17081888
000330 8b 34 d5 3e 4f 7c cb bd a1 b9 0a bf e7 f9 eb be
       0.4164165 -0.09935819 -0.541895 -0.46089098
000340 29 b6 43 3f b1 6a 07 3e 49 3c 53 be be e0 2a 3f
       0.7644983 0.13224293 -0.20628466 0.6674918
000350 c7 86 b7 3e e4 5c fe 3e be 4a 95 3e 33 24 5c 3c
       0.35845014 0.49680245 0.29158586 0.013436365
000360 89 87 43 bd c8 17 8c bf 21 c8 11 3f d5 02 3a be
       -0.04773668 -1.0944757 0.56946 -0.18165143
000370 a6 ba 07 bf 02 d3 5e be 73 03 71 3f 1a 97 8b 3e
       -0.5301918 -0.2176018 0.9414589 0.2726372
000380 0d 5c 4a 3d e9 ed 53 be f1 51 be 3e 94 7d 8f 3f
       0.049404193 -0.20696224 0.3717189 1.1210198
000390 6c 5b c1 3d 80 ba 9e 3e 0c 53 0b 3f 70 46 f5 3e
       0.094412655 0.31001663 0.54423594 0.47905302
0003a0 7e 4a 47 3f d9 f5 10 be 0c dd 54 3e 54 a1 ba be
       0.7784804 -0.14156283 0.20787448 -0.3645121
0003b0 4c db 4a 3e 5a 2f bf be 17 2d cd be df b8 e0 be
       0.19810218 -0.37340814 -0.40073463 -0.43891045
0003c0 d6 f8 a4 bc f2 ba 5e 3f ed c6 8f 3e 3f 17 ec be
       -0.020138185 0.87004006 0.28081456 -0.46111485
0003d0 9c 5e aa bd 33 db 90 be 45 a9 96 be a9 79 ea 3e
       -0.083188266 -0.28292236 -0.29426017 0.45795944
0003e0 91 39 88 be df 25 c3 bd 9e ba 7c be 54 bd 82 3d
       -0.2660642 -0.09528708 -0.24680564 0.06383768
0003f0 e7 75 72 be 03 b5 d3 bf 28 27 a8 bf d7 9c b4 bd
       -0.23677789 -1.6539615 -1.313695 -0.08818977

fc3.bias f4 [4]
000000 cd 65 9c 3d b5 7e c4 3d 2a 83 d4 3d 3d bd cb 3c
       0.076366045 0.0959448 0.1037658 0.02487051
