models/arm_critic.pth (torch_old, 601156 bytes, 5 tensors)

fcs1.weight f4 [512, 33]
00000000: bb72 b33d a79e 123e 88ec 17bd 370c 4cbe
00000010: 6186 913d b6d3 01be 0cf3 9abd 749f 86bd
00000020: 5b68 5c3d ac5c 5f3d da99 52bd b458 923d
00000030: b883 543d e663 10be fbf4 b4bd ee8a ee3c
00000040: a9d8 06be 0b2d 3ebd 790a ee3c 9d82 9ebc
00000050: c377 c63c 3e5e 5e3d 6df9 8fbd 7414 43bd
00000060: bbf4 93bd aabd 77bd 6103 493d 96c2 013e
00000070: 06a1 67bd 5a7a a73c 57cb b2bd c883 943c
00000080: 13ed 453b bfe3 52be ae08 893d 2620 c93d
00000090: a006 7a3e 3232 4dbc 5675 953d 7a28 583d
000000a0: 6de9 453d e66d 18be 5c5d cdbc 578a d8bc
000000b0: 752d 863d 776e 0a3e 5186 dbbd 519b 81bb
000000c0: 3f16 2cbd 0f88 1bbe d21d 74be f157 803d
000000d0: 0831 653d 6275 a5bc 2018 f2bb 660f 32bc
000000e0: 0317 09be 198b 43bd b3b3 dcbc eccb 633d
000000f0: 5fce 3e3e d42c 82bd 4e29 7bbc d8f3 42be
00000100: 06eb 01bd f95c f43c 9f49 40be a8ce 5dbd
00000110: aae8 853e d2d5 31bd eb30 753e 5e1c 8d3d
00000120: 20d1 dd3c a0ec b93d b2ac 35be 2e14 a53d
00000130: 619f c7bd fc10 203c d38f 5f3c 1feb fc3c
00000140: 353c 123d 1af3 79be ee89 833d 38ed ba3c
00000150: ee22 013d 3ee5 b1bd 4e10 26bc fdee c53b
00000160: d4c4 5abc a87b bb3d 6d3e 98bc db02 b6bd
00000170: cb0f 6cbd f729 173e 37a5 2f3c 7dfa f5bc
00000180: 3a5c 07be 073a 063d 051f bc3e 0091 d7bd
00000190: 3579 ad3d 57b7 0fbd 2da5 25be 8031 e7bd
000001a0: e0e7 aebd 7094 18be c24d bfbd 0410 f73d
000001b0: f59d c73d 2b1d 0f3c 4cdf 013b dfd3 513d
000001c0: c002 cd3b ae31 2bbd dfb8 803d b2c6 c1be
000001d0: f25f c33e c4ef afbe 9c8b 313d 4489 8f3d
000001e0: 02f8 4dbd 2cd4 bcbd 3754 b8bc d08f afbd
000001f0: 36f7 bebc c825 d33d c67b 783e 2041 563c
00000200: 700d 153b eac3 76be 3060 31bc 6867 a23e
00000210: 18de 703d 3463 823e f5bf 813d 2c04 86bd
00000220: 59ec f83c 36a4 bebb 50b2 9b3e 52c0 203d
00000230: 8f29 673e 9adb 813e 1449 f33c ed17 c73d
00000240: 526a abbd bf35 a83d d339 9fbd 45fe 92bc
00000250: 7213 733d 80ae 0e3e c2f6 823d 2f5e 473c
00000260: 7091 60bc 60de 353c 7b95 4f3c cf98 4a3d
00000270: 6772 dbbc 9b4a a0bc c347 8bbd 7c57 663e
00000280: 5d93 babd a859 05bc 8a25 94be e09c e4bb
00000290: 0e5d b4be 9021 14be 5715 f9bc 31a8 133e
000002a0: 4246 94be 54d0 eabe 1721 263e 447f 8dbd
000002b0: 83ed 1b3d 1bcd 58bd 2624 72be f84a 5c3d
000002c0: e0b1 df3d c68f 083e 8a42 1b3e 56f1 d73d
000002d0: 687b f5bc a94a aa3e b74e a63c af87 243e
000002e0: e7fc fcbc 8b69 4e3c be73 723c 8d2e 023c
000002f0: e61e cc3d 2dd5 a53c c14e 683c 19ea a03c
00000300: 62aa 423e 0f98 b13c 08a8 a03b b3c9 3fbe
00000310: 9eda 59bc 4255 483e e428 b03d 70dc 333e
00000320: a1c6 bfbd c5aa 1f3d a389 883d efa6 95be
00000330: b25a 91bd 6076 1fbc d7f5 7ebd a110 a13c
00000340: e2e0 2c3d 6f79 3b3d d841 03bd 8d94 0cbe
00000350: 35d6 94bd 6a3b 823d 5b9e 84bb 2c35 1cbd
00000360: db8d 033e 622e d73c 8d9f 96bc c8ee 983c
00000370: 4c04 b9bc ce30 6dbd 9dee 023b ec82 b63b
00000380: a27a 243d 8ac4 163e db1a 5b3d 6c55 7c3c
00000390: fa93 03be e086 f33b 79eb 143f 5e1c b63d
000003a0: 76bc 9ebc 9003 07bd c69a aebd 0d75 09bd
000003b0: 0338 c239 b5a8 0bbb 0508 523d b963 8d3d
000003c0: 66db 34be 6625 313d 9c38 073e d2a0 61bd
000003d0: 4ce6 de3c 6643 463e eef4 a9bd 5e3c 58bd
000003e0: 4a77 babd c9ec 863c 9861 563d 6c85 2cbd
000003f0: 8f8e 153d 31b0 bbbd c4ba 45bb 1f8d b3bd
0.087621175 0.14318334 -0.03709081 -0.19926535 0.07105709 -0.12678418 -0.07565889 -0.06573382
0.05381046 0.05453174 -0.051416256 0.07145825 0.05188343 -0.14100608 -0.08835789 0.029118981
-0.13168587 -0.046429675 0.029057728 -0.01934939 0.024227029 0.054289095 -0.07029996 -0.047626927
-0.07224413 -0.060483612 0.049075488 0.12671885 -0.05655005 0.020444084 -0.0873019 0.018129244
0.0030201122 -0.2059469 0.06691109 0.09820585 0.2441659 -0.0125241745 0.07297771 0.052772976
0.048318315 -0.14885673 -0.025068931 -0.026433153 0.06551639 0.13518701 -0.10718978 -0.0039552827
-0.042013403 -0.15188621 -0.238395 0.062667735 0.055954963 -0.020197574 -0.00738813 -0.010867929
-0.13387685 -0.047740076 -0.026941156 0.055614397 0.18633412 -0.063562065 -0.015329672 -0.19038332
-0.031718276 0.029829489 -0.18778084 -0.05415216 0.2615407 -0.043416806 0.23944442 0.06890176
0.027077258 0.09078336 -0.1774166 0.080604896 -0.09747196 0.009769674 0.01364513 0.030873833
0.03570195 -0.24409142 0.064227924 0.022818193 0.031527452 -0.086863026 -0.010135723 0.0060404525
-0.013352592 0.09154445 -0.018584454 -0.088872634 -0.05763225 0.14762102 0.010720543 -0.030026669
-0.13218775 0.032770183 0.36742416 -0.105257034 0.08470384 -0.035086956 -0.16176291 -0.11288738
-0.085403204 -0.14900374 -0.09341003 0.120636016 0.09746925 0.0087349815 0.0019816933 0.051227447
0.0062564313 -0.041795425 0.06285261 -0.37846905 0.38159138 -0.34362614 0.043346033 0.07008603
-0.050285347 -0.09220156 -0.022501094 -0.08572352 -0.023311239 0.103099406 0.24265966 0.01307705
0.0022743605 -0.24098173 -0.010826156 0.31719518 0.058805555 0.2546631 0.06335441 -0.065437645
0.030386137 -0.0058179153 0.3040948 0.03924591 0.22574447 0.25362855 0.029697932 0.0972136
-0.08369888 0.08213376 -0.07774701 -0.01794351 0.059344716 0.13933754 0.063947216 0.012168451
-0.01370655 0.011100382 0.012669916 0.049462136 -0.02678795 -0.019566825 -0.06800797 0.2249431
-0.091101386 -0.0081390515 -0.2893489 -0.006976709 -0.35227245 -0.14465928 -0.030405683 0.14419629
-0.28959852 -0.45862067 0.1622356 -0.069090396 0.038068306 -0.05292998 -0.23646602 0.053782433
0.10922599 0.13336095 0.15162101 0.10544078 -0.029966071 0.33260086 0.020301206 0.16067384
-0.030882312 0.012598406 0.014798103 0.007945669 0.09966831 0.020243252 0.014178933 0.019642876
0.19010308 0.021678953 0.0049028434 -0.18729286 -0.013296751 0.19563773 0.08601549 0.17564559
-0.09364057 0.038981218 0.06666877 -0.29228923 -0.07097377 -0.009732813 -0.06224617 0.01966125
0.042206652 0.045770105 -0.032045215 -0.13728543 -0.07267419 0.063589886 -0.0040471978 -0.038136646
0.12847082 0.026267234 -0.018386627 0.018668547 -0.022585057 -0.057907872 0.001997865 0.0055698063
0.040156014 0.14723411 0.05349241 0.015401226 -0.12849417 0.00743185 0.581718 0.08892129
-0.019376975 -0.03296238 -0.085256144 -0.033558894 0.00037044295 -0.0021310274 0.05127718 0.06903786
-0.17661819 0.043248557 0.13205189 -0.05508501 0.027209423 0.19361648 -0.0829867 -0.052791946
-0.09104784 0.01647033 0.052339166 -0.04211943 0.036512908 -0.09164465 -0.0030171135 -0.08767151

fcs1.bias f4 [512]
00000000: 3eaa 38be 8ace 96be 4094 93be 22be 85be
00000010: 131d b9be fb41 aebe 0589 a63c d1a2 c3be
00000020: 2f5c cbbe 9993 dcbd 5153 8abe 51e4 a7bd
00000030: eda4 27be dba7 33bd 4e06 c6bd 5375 59be
00000040: 6484 c8be f89b 8ebd f97a 96be 1f15 313e
00000050: 3255 2fbe fadf b1bd 3682 43be b5a9 0dbe
00000060: f511 a3be ead6 7fbe df9c 5c3d 17e2 d2bd
00000070: a2d2 c5be 6e90 31be 0ee8 90be e19c 71bd
00000080: 5024 d8bd 428d 05be 0037 9e3d 7fca 463e
00000090: 8d47 b9bd b263 77be dced 32be e622 80be
000000a0: 657d 39bd 251e 97bd c483 23be 2229 9fbe
000000b0: 2b61 7dbe e346 3fbe 3e14 ffbd 303c 05be
000000c0: 9e78 5abd 8caa eebe 859e e7bd ac59 9ebe
000000d0: bd6d c0bc 86e7 72be 9520 93be da3b bcbd
000000e0: f58f 5dbe 9ea6 9abe 9feb 2a3e 43fa 77be
000000f0: b8c8 eebe 912e 33be 074e 0cbe bcc5 9bbd
00000100: caea 76bd d261 ea3c 4d98 8b3c 2897 00be
00000110: 3c55 5fbe ef9c ebbd a770 c7be 580c 81be
00000120: 7316 4cbe d714 74bd 71e0 0abe 1075 dbbc
00000130: f582 efbd dab4 6ebc b204 d93d fe06 8dbe
00000140: 2822 9e3e 7d2f febd da95 2dbe 11e4 85be
00000150: b634 4e3e 7d9f 39be c696 a1bd dd87 4bbe
00000160: 24cc 5bbe ffc3 87bc a690 debd 85ca 55be
00000170: 44be 01be 73ee 1bbe 76d7 65be 7227 3fbe
00000180: e123 74be 8204 53be 2f70 eebd 7e5c a13c
00000190: 927f 39be 5b45 84be 9bf9 7bbd 5d32 06be
000001a0: 62ca 4abe 6807 94be 3ed1 30bd d196 3ebd
000001b0: c4e2 81be fd8d d0be 4ede 3f3c 0448 ecbd
000001c0: f6dd f3bd 0be9 e6bd f292 60be 694c 17be
000001d0: d6a3 1ebe 236c 30be 39eb c0be d10a 66be
000001e0: f785 afbe db87 acbd 694b 84be c853 debd
000001f0: f603 a7be 3cc4 993d 4dee 093d 5393 7ebd
00000200: ef74 8abe fcb6 bc3d 0b86 19bc 9381 8cbd
00000210: fb63 e8bd 9754 38be e853 d2bd aa5e 9e3d
00000220: 1e51 1abd 93f7 04bd b52a a2bc c298 a5be
00000230: 9778 8a3d 8cc4 1fbe f8f5 31be b15a b4be
00000240: 671b 20be 05b9 2fbe 7572 7cbe 5201 8dbe
00000250: 1aa8 87be cf97 7abe c0cd 56be cdb6 73be
00000260: 5b63 c13e 3bc6 33bd 6c06 3b3d e6fb 20be
00000270: 1cd0 b0bd 19e3 9fbe 0e94 c4bd 1bf8 44be
00000280: 5cbd 08be 9c5a 0dbe d823 73be bdd6 ecbd
00000290: 9770 78be 3999 4dbe 733a 5bbe ef7e 913d
000002a0: 751a fdbd 8cb2 8dbe e426 6cbe e3f7 0dbe
000002b0: d86f a93d 0391 6fbd e9e1 9dbe 0678 7cbe
000002c0: d9db 90be e62c 2bbe a61b cabd 1795 dfbe
000002d0: 0873 47be c6fd aabc deac c53c 796a 86be
000002e0: 8504 a0be fea9 c73e ff2d 85be 4411 06be
000002f0: 59bd 4cbe 7edf f93d 1661 2dbe e0fc 45be
00000300: 1303 6fbe 3f1f 7fbd 5398 a8be 459e 53be
00000310: 6cb4 66be aded 1f3d 4998 903d d9c8 8dbe
00000320: dd3f a9bd f994 32bd 8f5a 8cbe 8c8c 9abd
00000330: 5004 11bd fe8a 6cbd c6af 27be a159 44be
00000340: dc78 0fbe 9ba5 05bd e95b 7bbe af63 abbe
00000350: f399 87be e1ba a2bd 0f58 8cbe 43b1 3bbe
00000360: f5d3 3ebe 408a dabe 73cc aabe c958 40be
00000370: 2b1e 7cbe 2b5d 66bd cd32 dbbe 868a fb3d
00000380: e97e 7d3d 3117 c8bd dc76 46be dc9b bcbd
00000390: 4973 b9bd bd66 05bd 08c0 bfbe dc88 94be
000003a0: f599 a6be f9cc 223e 281c 97be ab8c c43e
000003b0: 17f2 7fbe 6b25 1fbe 74ec 44be 7407 adbe
000003c0: 0c05 4ebe fc40 c9be 8d2c 3bbd f42f 86bd
000003d0: 0f35 4b3e 321b b2be fd8d cebd 3caa 6cbe
000003e0: f917 27be 395e 6cbd 687a 88be 10d6 2cbe
000003f0: 8cc8 f5bd 9d16 f2bd fa84 72be 7fdc 70be
-0.18033692 -0.29454452 -0.28824043 -0.26121622 -0.36154994 -0.34034714 0.020329008 -0.38210157
-0.39718768 -0.107703395 -0.2701669 -0.08197845 -0.16371508 -0.04386125 -0.09669171 -0.21236162
-0.39163506 -0.069633424 -0.29390696 0.17293213 -0.17122343 -0.08685298 -0.1909264 -0.1383427
-0.31849638 -0.24984327 0.05386054 -0.102970295 -0.38637263 -0.17340252 -0.28302044 -0.058987502
-0.10553801 -0.13042167 0.07725334 0.19413184 -0.0904685 -0.24159124 -0.17473549 -0.25026625
-0.0452856 -0.073787965 -0.15968233 -0.3108607 -0.24744098 -0.18679385 -0.12455033 -0.13011241
-0.053337686 -0.46614492 -0.11309532 -0.3092779 -0.023489827 -0.23721132 -0.28735796 -0.09191103
-0.21636946 -0.30205244 0.16691445 -0.24216561 -0.4663751 -0.17498232 -0.1370164 -0.07606074
-0.060282506 0.028611097 0.017040396 -0.12557662 -0.21809858 -0.11504542 -0.38953134 -0.2520473
-0.19930439 -0.059590187 -0.1356218 -0.026789218 -0.116949 -0.014569486 0.10596599 -0.27544397
0.30885434 -0.124114014 -0.16951695 -0.26150563 0.20137295 -0.18127246 -0.07890086 -0.19876046
-0.21464592 -0.01657295 -0.10867433 -0.20878036 -0.12670237 -0.1522768 -0.22445473 -0.18667391
-0.23841812 -0.20607188 -0.11642491 0.019697424 -0.1811507 -0.25834164 -0.06151734 -0.1310515
-0.19803765 -0.289119 -0.0431683 -0.04653055 -0.2536832 -0.40733328 0.011710716 -0.115371734
-0.1190757 -0.11274918 -0.21931055 -0.14775242 -0.15492186 -0.17228751 -0.3767946 -0.22465064
-0.34281895 -0.0842435 -0.25838783 -0.10855824 -0.3262021 0.07508132 0.033674527 -0.062152218
-0.27042338 0.09214589 -0.009370337 -0.06860652 -0.11347195 -0.18001018 -0.1026991 0.077328995
-0.037675016 -0.032462668 -0.019795755 -0.32343107 0.06761282 -0.1560232 -0.17378986 -0.35225442
-0.15635453 -0.17160423 -0.24653037 -0.2754007 -0.2649544 -0.24471973 -0.20976925 -0.23800202
0.37771115 -0.04389022 0.04566042 -0.15721092 -0.08633444 -0.3122795 -0.09598552 -0.1923527
-0.13353485 -0.13804096 -0.23744142 -0.115643956 -0.242617 -0.20077981 -0.21409015 0.07104289
-0.12358562 -0.27675283 -0.2306171 -0.13864093 0.082732856 -0.058487903 -0.30836418 -0.2465516
-0.2829273 -0.16716346 -0.09868555 -0.43668434 -0.19477475 -0.020872962 0.024130281 -0.26253107
-0.31253448 0.3899688 -0.26011655 -0.13092524 -0.19994105 0.12200831 -0.16931567 -0.19334745
-0.23341016 -0.062285658 -0.32928714 -0.20665844 -0.22529763 0.039045025 0.07060296 -0.27692297
-0.08264134 -0.043599103 -0.2741284 -0.075463384 -0.035404503 -0.05774974 -0.16375646 -0.19174816
-0.14010948 -0.032628637 -0.2454678 -0.3347449 -0.2648464 -0.079458006 -0.27410933 -0.18329339
-0.18635543 -0.426836 -0.33359107 -0.18783869 -0.24620883 -0.056241196 -0.42812195 0.122822806
0.06188861 -0.097700484 -0.19381279 -0.09209415 -0.09055192 -0.032568682 -0.37451196 -0.29010665
-0.32539335 0.15898503 -0.2951367 0.3838857 -0.24994694 -0.15541618 -0.19230825 -0.3379475
-0.20119113 -0.39307392 -0.045696784 -0.06552115 0.19844459 -0.34786373 -0.10085676 -0.23111814
-0.16317739 -0.057707045 -0.2665589 -0.16878533 -0.12001142 -0.118207194 -0.23683539 -0.23521613

fc2.weight f4 [256, 516]
00000000: e4ca b13d cfa4 a3ba f501 d8bd bf23 16bd
00000010: 5819 6b3e 0fa0 d3bd 1022 80be 4a4d 38bd
00000020: dd16 e83d 5c65 c2bc 2ff7 77bd 449e b6bd
00000030: 2834 033e 6f86 cbbd 9c59 ab3d feeb 9dbe
00000040: c837 f6be d7cc a3bc b1c0 6c3b b96b 023e
00000050: 02af 8bbe 5461 003d c97a 8cbd 30ac a13d
00000060: 9b11 09bd e95d 253e 02c7 bd3b 3d53 083d
00000070: ee2a 4fbe 8dbe 003d c337 38be 04fb 723d
00000080: 9467 cdbe a86d e2bd 9f2c f8bc 6c32 523d
00000090: c0cf f03d 9e31 9e3d 86a0 b2bd 6cec 863c
000000a0: 8026 483e bf3a f83b ef9f fd3b 4fde cc3d
000000b0: b6d0 723c 4c14 37bc 3aed 8abd bd0f 733c
000000c0: d9e4 82bd b407 4abe 0c30 003c 5567 8fbd
000000d0: 7f23 ac3d 82a2 fbbd 1696 3abe 2183 11be
000000e0: 9b66 513d ff4a 28bd 4992 983b 8a7e 8fbc
000000f0: 46fe 903d dc5d 08be 5afb e43d 5c3c d8bd
00000100: 1032 e4bc 332a 25be 7521 ba3d a5ed 8cbe
00000110: 05a5 4bbe ec5d 873d cfe3 493d a2be 8d3d
00000120: 5ef9 3ebd 0658 36bc 395c 633d 37c1 a4bc
00000130: 83d8 fcbd 176f a93c 4508 fc3d 6c77 f3ba
00000140: 3f6a 2abe 0363 25be 43dc ed3c 0353 00bb
00000150: 7eb0 653d c98e 3d3d aa66 b23d 4c98 553b
00000160: aa76 203d a6c4 143e c5d2 f73d 1f9b 96bd
00000170: ba2b 833d 0d9a 893d 927f cc3c 95b2 503c
00000180: a8c0 9cbd 2f0a 59be 6bac d43d 9ac3 053e
00000190: bb12 26bd ea2e 20bd a0b8 793c 01c2 a73b
000001a0: 17cc 393d d402 72be 821e d4bc e7f2 c93c
000001b0: 56a8 ebbb 6499 e8bd 08c8 5dbd 28e8 27bd
000001c0: 300a 23bd 0eb0 5fbd c984 fdbd 1a0a bdbd
000001d0: cc25 ab3d ba29 c7bc cb00 88bc b1c3 39bd
000001e0: 7e3b cebd 867f a73d 22c5 37be d4aa 7c3c
000001f0: 72f4 c3be f680 0e3e ac7d a83d e8d2 21bd
00000200: 6766 f43b c5a5 073c 57a0 8e3d 1226 98bd
00000210: 38ed a8bd 4fb5 833d 2184 51be 571c 8b3b
00000220: 3194 c23d 629d 333d 69c8 a33d 8ac1 b23d
00000230: 6d87 59bd acb9 8f3d def1 4fbe a686 f9bd
00000240: a8b3 00bc 1f0f 41bd d8f2 48bb 2ab9 c43d
00000250: c287 91bd 3ba0 bebd a888 b33d 8271 bfbe
00000260: 0e2d 673d fe8f 453d e1e2 c1bc 7b26 203d
00000270: 1e2f 363d 1cc8 52bd 3079 53bc 4af2 273e
00000280: aef1 dcbb ff0d 583d b6a7 1fbe 1fac ba3d
00000290: 5734 533d eecb d43d f0fc 80bc aeb1 ae3d
000002a0: f05e 64bc 68a8 1f3e 202c 4cbe 7e6e a8bb
000002b0: 4767 c53d 64ee 59bd ed62 bcbd 745f 62be
000002c0: b84e 993d 933e 543c 40dd d7bb b370 f8bd
000002d0: d125 3abd a53b 2ebd aac3 4c3d 5ca5 0ebe
000002e0: 8858 543c bfe6 773d caa6 2c3d 9316 cb3d
000002f0: fb66 103e bac2 07be eba7 61bd b98a c8be
00000300: b3ca 93bf 745a 6e3a a651 8dbd 3079 e53c
00000310: 24a5 a23c c001 af3b 61e5 913c 1df5 c0bc
00000320: 70fe 9d3d bb39 3b3b afb2 673d 82c6 afba
00000330: 0dd8 87bd cc01 4f3d c15c 463e e3b1 8bbc
00000340: 2098 7d3d 4afe 0a3e 2fa5 1b3e 2b21 41be
00000350: 7957 24be bcd5 f23c d965 9cbd 3da4 01bd
00000360: 03b0 12be e94a dabd 4d74 b2bd 6bd1 afbd
00000370: d1a2 c1bd ba37 283d 6008 d7be 0ad5 a0bd
00000380: eae2 ad3c bc27 d7bd 30c9 51be f5b4 243e
00000390: 9def 82be a22f 4f3d 5d1d 48be 3286 16bd
000003a0: 8c8c 5cbd 4424 38ba 39d7 c8bd 0319 0e3d
000003b0: 154b b5bc 5ddd 813c 12c2 6ebd 387a 9c3c
000003c0: 1401 593c 8684 b83d aecb c03d 70ba c5ba
000003d0: e8f5 c63c deff 54bc a984 97bd ba7c 63bd
000003e0: 040a f8bc b827 41be 427f d5bd cdb4 d4bd
000003f0: ea2f 9fbd 0534 20bf 9c71 183b 6ee6 743e
0.086812764 -0.001248503 -0.10547248 -0.036655184 0.22958887 -0.10333263 -0.25025988 -0.044995584
0.11332486 -0.023729973 -0.060538467 -0.089169055 0.12812865 -0.099377505 0.08366701 -0.3084411
-0.48089433 -0.019995136 0.0036125595 0.12736405 -0.27281958 0.03134282 -0.06859357 0.0789417
-0.033464056 0.16149105 0.005791546 0.033282507 -0.2023122 0.031431723 -0.17990021 0.05932142
-0.40118086 -0.110560715 -0.030294714 0.051317617 0.11758375 0.077243075 -0.08722024 0.016470157
0.19545937 0.0075753625 0.007740013 0.100033395 0.014820268 -0.011174273 -0.067835286 0.014835295
-0.063913055 -0.19729501 0.007823955 -0.07002131 0.08405208 -0.12286855 -0.18221316 -0.14210178
0.051123243 -0.041087147 0.0046561104 -0.017516393 0.07079749 -0.13317055 0.11180754 -0.10558388
-0.027855903 -0.16129379 0.09088413 -0.27525058 -0.19887169 0.06609711 0.04928952 0.06921126
-0.046624534 -0.011129385 0.055507872 -0.020111663 -0.12345984 0.020682855 0.12306265 -0.0018575019
-0.16642092 -0.16151051 0.029035693 -0.001958073 0.05607652 0.04627875 0.08710988 0.0032591997
0.039175667 0.1452814 0.12100748 -0.07353806 0.064048246 0.06718836 0.024963174 0.01273789
-0.07653934 -0.21195291 0.103844486 0.13062897 -0.040545207 -0.03910724 0.015241772 0.0051195626
0.04536065 -0.23633891 -0.025893454 0.024651958 -0.007191698 -0.11357382 -0.054145843 -0.040992886
-0.039804637 -0.05461126 -0.123788424 -0.09230442 0.083568186 -0.024311889 -0.01660194 -0.04535264
-0.10069941 0.0817862 -0.17946294 0.015421588 -0.38272434 0.13916382 0.08227095 -0.039507776
0.0074584964 0.008279269 0.06964176 -0.07429136 -0.08248371 0.06431066 -0.2046056 0.0042453217
0.095009215 0.043851264 0.079972096 0.08728321 -0.053107668 0.07017836 -0.20307109 -0.12183885
-0.007855333 -0.04713356 -0.0030662324 0.0960563 -0.07105972 -0.09307905 0.087662995 -0.37391287
0.056439452 0.048233025 -0.023667755 0.039099198 0.04447853 -0.05146037 -0.012907311 0.1640102
-0.0067426777 0.052747723 -0.1559132 0.09114861 0.051563587 0.10390459 -0.01574561 0.085299835
-0.0139386505 0.15591586 -0.19938707 -0.005140125 0.09638839 -0.053205863 -0.09198556 -0.22106725
0.074857175 0.012954372 -0.0065876544 -0.12130871 -0.04544622 -0.04253735 0.049991287 -0.13930267
0.012960561 0.06052279 0.04215125 0.09916415 0.14101784 -0.13257876 -0.05509178 -0.39168337
-1.1546234 0.0009092458 -0.06900339 0.028011888 0.019854136 0.005340785 0.017809572 -0.02355438
0.07714546 0.0028568346 0.05656689 -0.00134106 -0.06633005 0.050538823 0.1937132 -0.017052596
0.061912656 0.13573566 0.15199731 -0.18860309 -0.16048993 0.029642932 -0.076366134 -0.03165077
-0.14324956 -0.10658819 -0.08713589 -0.08584865 -0.09454883 0.04106877 -0.41998577 -0.07853134
0.021226365 -0.105056256 -0.20486903 0.16084655 -0.25573435 0.050582536 -0.19542451 -0.036749072
-0.053844973 -0.0007024447 -0.098066755 0.03469182 -0.022130528 0.015852625 -0.05829055 0.019101247
0.013244886 0.09009652 0.09413849 -0.001508547 0.02428718 -0.013000457 -0.0739835 -0.05553887
-0.030278213 -0.18862808 -0.10424663 -0.103860475 -0.07772811 -0.62579376 0.0023261076 0.23916027

fc2.bias f4 [256]
00000000: 81c7 853e 6cdb b73e d889 74be abbe 58be
00000010: c9c9 66be c569 28be 8328 963e fed1 06be
00000020: c705 7d3e dbea de3e 69ee 843e 0e77 e9be
00000030: 2f81 af3e 92d7 ea3e 55b2 713e 390c a4be
00000040: cf78 d8be bb41 8f3e 56c7 2b3e 11b9 15be
00000050: 7319 5f3e 775b 3a3e 8845 38be ac09 aa3d
00000060: 486e 97be 57bc b13e 0007 b43e d427 e63e
00000070: a228 243e e7c2 c8bc f563 793e b94b af3e
00000080: b060 03be 4033 b9bd cd47 7e3e 4ca3 263d
00000090: c35e 693e 77bb 3c3e 786c 10be be52 a33e
000000a0: 21fd b43e e424 d33e 421a ecbd db00 9d3e
000000b0: ed11 983d 208b ec3e 0d1d b03e 5318 793e
000000c0: 66fb 0a3e b735 363e 1789 0f3e 6450 553e
000000d0: 5bd3 61be cecc c63d f9d4 8dbe d3e4 21be
000000e0: 439e 393e 336e 283e e8df c3bd 49a9 413e
000000f0: dc4d 74be f71c 7cbe 25c3 bb3e 7eaf bd3e
00000100: dde5 8f3e e40d d23d a808 a83e 967b 943d
00000110: 4184 13be 881b 18be b18a 053f eec6 a73e
00000120: a97c 81be ffac 33be 1d12 423e 61d2 22be
00000130: 7bc0 08be c81b 13be e767 06be 88b4 d2bd
00000140: 1f4a a73e f1af 1bbe 591c 33be 716a 67be
00000150: 4e3b 23be 3eee 98be bede a33e e270 fc3c
00000160: f9a5 64be 1430 92bd f56b c93e 5ccd 2bbe
00000170: 3455 58be cfe2 7e3e 586d 41be 3636 ac3d
00000180: 3ab6 b0bd 8777 2c3f 7b60 343e 0e7c a0bd
00000190: abe9 273e 08bc 4ebe 3898 463d 2ed4 c7bd
000001a0: 764c ab3e eed0 1f3e 8420 34be acb1 fb3d
000001b0: e1c4 d33e bdd9 e73d 31f1 203e e181 2e3e
000001c0: 287f 17be ba7b 8fbd 853d 37be d42d 3ebe
000001d0: a85c 113e 6871 b6be f109 493e aa20 c83e
000001e0: 3255 c03d d247 8ebd dfe0 003f c54f 04be
000001f0: 50ac e83e 7dbf 4a3e 7f67 4b3e aab1 273e
00000200: 13b4 48be b326 643e 74e9 02be 8318 2a3e
00000210: 9eb9 4c3e 6bb6 0fbe 9b78 b0be 6091 91bd
00000220: aa10 7fbe bb7d 8bbe 083f 3e3e c4e5 37be
00000230: 8b58 06be f8d6 fdbe 5082 4b3e 733c 03be
00000240: b4e9 093e f118 003d c53a 6ebe 5a72 6dbd
00000250: ad81 e33d 255d 273e 04e8 afbd 6130 87be
00000260: 8159 1dbb c339 28be 228b ba3d 0645 db3d
00000270: ed6b 933e 78b2 5f3e e1b4 c1bd 846e ddbd
00000280: c1f7 40be b1dd b73d cb88 1bbe 664b 803e
00000290: c604 8e3e 7c69 0e3f e913 6cbe 21ff 713e
000002a0: f628 16be a6d8 02be 5607 56be 15c6 003e
000002b0: e3b9 e5bd a791 9dbd d550 01be b210 683e
000002c0: 2ffc be3d 56e4 943d 2cab 64be 57ad 3b3e
000002d0: 5ddb 4a3e bdd6 a03e 7543 193e 5214 443e
000002e0: e645 353f 16e5 c0be cf5e f6bd 361c 60be
000002f0: 05a3 f0bd 2911 3d3e be9e cc3e 8caf 173e
00000300: 64dc 553e ecb3 12be e725 e83d bcf2 01be
00000310: a0b1 febd b364 59be 0474 07be b396 813e
00000320: b1e0 053f 5da0 0f3e 9445 e93b 36b5 6c3e
00000330: f3e1 2dbe e3ac 60be 9b97 2b3f d2b3 7bbe
00000340: 2561 bbbd bfee 873c e6f5 ffbd 21e9 a4be
00000350: bf9c 493e af98 233f 65bc 0abe a21f c63e
00000360: 8a4b 79be a634 c9be 795d 27be 69e0 5e3e
00000370: 27a1 723e 6e0b 963e d7f2 1abe a295 9cbe
00000380: 97af d8bd 3c70 1ebe 5e07 983e 4262 873e
00000390: 65f9 b03e bcf5 9f3e fcba c53d 7174 8f3e
000003a0: 5e43 a6bd 58f2 953e 8598 983e 6709 1b3e
000003b0: d518 6b3e 95e2 56be 408c 58be 8767 50be
000003c0: c00f 6cbd 5bf1 e23e 4723 e13e 251f a4bd
000003d0: 33a7 cdbd 20e8 1a3e a0f4 df3e 6bf7 07be
000003e0: c721 403e 9187 93be 045c c13d 9d19 5d3e
000003f0: 80de 7a3e e039 60be 7b6c 893e 832c 05bf
0.26128772 0.35909593 -0.23880708 -0.21166484 -0.22537912 -0.16446598 0.29327783 -0.13166043
0.24709235 0.43538556 0.25963143 -0.45598644 0.34278247 0.45867592 0.23603185 -0.32040575
-0.4227967 0.27979836 0.1677526 -0.14621378 0.21787052 0.18198954 -0.17995274 0.08302626
-0.29576325 0.34714004 0.3516159 0.4495226 0.16031125 -0.024507 0.24354537 0.3423746
-0.12829852 -0.09042978 0.24832077 0.040683076 0.22790055 0.18430887 -0.14103878 0.31899065
0.35349372 0.41239083 -0.11528446 0.30664715 0.07425294 0.46199894 0.34397164 0.24325685
0.13572463 0.17793928 0.1401714 0.20831448 -0.22053282 0.09707032 -0.27701548 -0.15809946
0.18126778 0.16448288 -0.09564191 0.18912233 -0.23857826 -0.24620424 0.3667232 0.37047952
0.2810506 0.10256556 0.32819104 0.07250135 -0.1440592 -0.14854252 0.5216475 0.3276896
-0.2529042 -0.17546462 0.18952222 -0.15900566 -0.13354675 -0.14366066 -0.13125573 -0.1028834
0.32673737 -0.15203835 -0.17491283 -0.22599198 -0.15940592 -0.29869264 0.32005876 0.030815545
-0.22328939 -0.071380764 0.39340177 -0.16777557 -0.21126252 0.24891208 -0.18889368 0.084087774
-0.08628507 0.67369884 0.1761493 -0.078361616 0.16397731 -0.20188916 0.04848501 -0.09757267
0.33456773 0.15607044 -0.17590529 0.122897476 0.41361144 0.11320827 0.15717007 0.17041732
-0.147946 -0.07006021 -0.17894562 -0.1857217 0.14195502 -0.35633397 0.19632699 0.3908742
0.0939125 -0.069472924 0.50343126 -0.12921055 0.45443964 0.1979961 0.198637 0.16376367
-0.19599943 0.22280388 -0.12784368 0.16610913 0.19992682 -0.1403443 -0.34467015 -0.07107806
-0.249087 -0.27244362 0.18578732 -0.17958742 -0.13119714 -0.4957807 0.19873929 -0.12816028
0.13468057 0.031273786 -0.23264606 -0.057970382 0.11108718 0.16344126 -0.08589175 -0.26404098
-0.0024009647 -0.16428284 0.09108569 0.107065246 0.28793278 0.21845424 -0.09458328 -0.10812095
-0.1884451 0.08977831 -0.15188901 0.25057524 0.27738017 0.55629706 -0.2305447 0.2363248
-0.14664063 -0.12777957 -0.20901236 0.12575562 -0.11217096 -0.076937966 -0.12628491 0.22662619
0.09325444 0.07270114 -0.22330922 0.18327843 0.19810243 0.31413832 0.14967139 0.19148377
0.7080978 -0.3767478 -0.12029802 -0.21885762 -0.117498435 0.18463577 0.3996486 0.1481306
0.20884854 -0.14326447 0.11335354 -0.12690252 -0.12436223 -0.2122982 -0.1322785 0.25310287
0.52295977 0.14026017 0.00711889 0.23116001 -0.16980724 -0.21940951 0.67028207 -0.24580315
-0.09149388 0.016593335 -0.12498073 -0.32209113 0.196887 0.6390485 -0.1354843 0.3869601
-0.24345222 -0.3929798 -0.1634425 0.21765293 0.23694287 0.29305595 -0.15131699 -0.3058291
-0.10580366 -0.15472502 0.2969312 0.26442152 0.34565273 0.31242168 0.09654805 0.28018525
-0.08118318 0.29286456 0.29803863 0.15140305 0.22958691 -0.20984872 -0.21147251 -0.20351993
-0.057632208 0.44324765 0.43972227 -0.08013753 -0.10041656 0.15127611 0.43741322 -0.13277976
0.18762885 -0.28814366 0.09441379 0.21591802 0.2449894 -0.21897078 0.26840577 -0.52021044

fc3.weight f4 [1, 256]
00000000: ca20 103e 0b18 133d 67c2 edbc d0b8 0dbe
00000010: 6b2d d1bd 2399 c2bd 604d 2f3d 0989 e8bd
00000020: b807 873d 3e11 e53c 4427 4e3d 74f3 1fbd
00000030: 37ca ae3d 1593 e23d 7c3c 3a3d bb0f 80bd
00000040: 60a5 2fbd 43d3 043d 3d66 c33d 5068 d9bd
00000050: 8bbb 743d f78a 5c3d fc71 2ebd 2a7b b83d
00000060: 7036 2dbd adf1 183d fbe6 443d 8cec 573d
00000070: 2c41 cd3d 6778 87be a729 ea3c 8398 873d
00000080: 6705 a3bd c2e2 14bd 8609 013d eb35 cb3d
00000090: f043 193d 91de 193d 7753 d7bd cd3b 0d3d
000000a0: b1c0 3a3d dc02 533d 12e9 17be f836 ed3c
000000b0: 4d29 3f3e b261 983d bc48 363d 9d7c 0b3d
000000c0: d3e3 093d 730d 943d b75d 1f3d 5231 b93c
000000d0: c7fb 3fbd 1bdd 8e3d 8492 fabc 888a d9bd
000000e0: 4573 973d fc48 d13c 6d9f 40bd cf1a ed3d
000000f0: 9a36 4fbd 585d 05bd 78dc 383d f2c4 203d
00000100: baa6 333d 6839 e33d 7615 133d 1865 a43d
00000110: f433 36be dab9 a9bd 66e1 863d 0095 3e3d
00000120: 235a 10bd 2461 d4bc 6e8b 573d d4e5 3ebe
00000130: 16b3 86be 680f 85be b395 cdbd 5c41 79be
00000140: 435d 093d 30c2 7bbd dbfb 39be 8cea 5cbd
00000150: 13e4 6fbd 7981 2dbd 2da7 003d 9f50 3e3e
00000160: 71cc 18bd 32a1 52be 7bb7 e53d 007e 98be
00000170: 5d58 eabc fcf9 1b3d 9664 6ebd 9e1a 223d
00000180: 38d9 a1be cb4a 0b3e 1ab9 263e c6f0 25be
00000190: df0f 523d 9d2e 4fbd 22c2 2a3d f08e cabd
000001a0: 5106 3a3d bebf fc3c 9c7e 88bd 1520 ba3d
000001b0: bf31 503d 24fd 4f3d c77d 663d 751a 803d
000001c0: d91e 4bbd f71c 14bf 1b63 81bd c24b 93bd
000001d0: 57d5 1f3d 60a3 b5bd 4014 9c3c 2da9 f13c
000001e0: 4d08 833d 3a02 9dbe 1b72 e63d 00df 88bd
000001f0: 14d8 763d 0049 fe3c d5f9 dd3d 8478 3f3d
00000200: ef94 48be 8f37 673d b544 0dbd 58a5 8a3d
00000210: 1d67 313d bb84 22bd 13ef 0fbd 4b22 eabd
00000220: 9e09 80bd 79e1 50bd 5aa4 d93d 68ad abbd
00000230: e6fe aebd bc88 2cbd 6f97 283d 205c 1bbd
00000240: 43e3 c63c 0c7f 9c3d b4a9 2ebd 4c77 49be
00000250: 0faf 3f3e b3ce 443d 7cec a1be 7508 87be
00000260: 6e05 e43d 8ac0 1dbd 26ff 8d3d d96f 0b3e
00000270: 01f0 c73c 5a83 953d 2818 33be b0b0 b9be
00000280: c557 2fbe 0e8b 923e c02e d1bd 923d 373d
00000290: aa49 3a3d c474 f93d 9098 b7bd 3d7d a83c
000002a0: 47a3 51bd 8efd bdbd 34bd b9bd 7049 353d
000002b0: 437f 3fbe b244 f3bc 85fd 95bd 2cc3 1d3d
000002c0: fa2a 0c3e 1a64 e03d c392 1bbd 2e37 bf3d
000002d0: 6dba 2e3d 1dae da3c a48e 063d ed13 143d
000002e0: 9f65 203e 16c5 3dbd de66 56be 70a1 39bd
000002f0: 7587 d5bd d44b 6e3d 1449 253d 0e9f 463d
00000300: cd5e 2b3d 7143 56be 19fd ef3d d3bf 84be
00000310: e8c2 38be f0f7 eebd 233e 1cbe fa28 9c3d
00000320: 1563 e73d 57a0 8c3d 7b33 e33d 9336 a83d
00000330: bcb6 a5bc 594a 7cbd 2730 1f3e f4b5 09be
00000340: 8804 01be 946e ac3d 4472 33be 49e1 c4bd
00000350: ba58 e63d 9fec 073e 8822 cabc 3107 e23c
00000360: 663e 1fbe 1f2b 0bbd 66dd 3abd f947 5a3d
00000370: 39be ab3c 236d 843d fa01 6ebd 7b49 25bd
00000380: 40a6 5ebd adf8 9cbd c74b c53c 959a 7f3d
00000390: 871e bb3d 68e7 2f3d f1c7 143e a36d 063d
000003a0: 29dd e9bd 5ddf 073d 33c5 c43d 9e9a b63d
000003b0: 14b8 0c3d 93b7 5fbe 7ef5 13bd d0e2 e9bd
000003c0: 3225 8cbe 6d8f 853d ed62 533d 5ec1 ffbd
000003d0: 20be c5bc fcfc 003e ec2b c53d 4950 87be
000003e0: b5af 0c3d 0ffd 25be 37fe 3c3d f2ad 303d
000003f0: c0d2 243d 9408 6ebe 4f0a e93d 34d0 f4bc
0.14075008 0.0359116 -0.029023362 -0.13840032 -0.10213741 -0.09501865 0.0427984 -0.113542624
0.06593269 0.027962323 0.050330415 -0.039050534 0.08534663 0.1106321 0.04546784 -0.06253
-0.042882323 0.032428037 0.09540985 -0.10615599 0.059749167 0.053843465 -0.042589173 0.09007867
-0.042288244 0.037339855 0.048071843 0.052715823 0.10022196 -0.26459047 0.028584315 0.06620886
-0.07960015 -0.036349066 0.031503223 0.099223934 0.037418306 0.03756577 -0.105139665 0.03448086
0.04559392 0.0515164 -0.14835003 0.028956875 0.18668099 0.07440509 0.04450296 0.034054387
0.033664536 0.07229128 0.038907733 0.022606526 -0.046870973 0.06975766 -0.030587442 -0.10622126
0.07395033 0.025547497 -0.04702704 0.11577379 -0.05058918 -0.032559723 0.04513213 0.03925032
0.043860175 0.11094934 0.03590914 0.080270946 -0.17793256 -0.082874015 0.0658596 0.046528816
-0.03524221 -0.025925227 0.052623205 -0.1864236 -0.26308507 -0.25988317 -0.100383185 -0.24341339
0.033536207 -0.06146449 -0.18162481 -0.05393462 -0.058567118 -0.042359803 0.03140943 0.18585442
-0.037304346 -0.20569304 0.11216637 -0.2978363 -0.028606588 0.0380802 -0.058201395 0.039576165
-0.31611037 0.1360275 0.16281548 -0.16205129 0.051284667 -0.050581563 0.041689046 -0.098905444
0.04541618 0.030853149 -0.06664774 0.090881504 0.05082869 0.050778523 0.056272294 0.06255046
-0.049589965 -0.57856697 -0.06317731 -0.07192184 0.039021816 -0.08869052 0.019052625 0.029499615
0.063980676 -0.3066576 0.11252233 -0.06683159 0.060264662 0.031040668 0.10838667 0.046745792
-0.19588064 0.05644947 -0.034489352 0.06769818 0.043311227 -0.039677363 -0.03514011 -0.11432322
-0.06251834 -0.050996277 0.10627051 -0.08382684 -0.08544712 -0.042122588 0.041160043 -0.037929654
0.024278289 0.0764142 -0.04264231 -0.19674414 0.18719123 0.048048686 -0.31625736 -0.2637364
0.11133848 -0.038513698 0.06933431 0.13616885 0.024406435 0.07300444 -0.17489684 -0.36267614
-0.17123325 0.28621715 -0.10213995 0.044736452 0.045480408 0.121804744 -0.08964646 0.02056753
-0.051181104 -0.09276877 -0.09069291 0.04425949 -0.1870089 -0.029695842 -0.07323746 0.03851621
0.1368827 0.10956593 -0.03798176 0.093366966 0.04265826 0.026694352 0.032850876 0.036151815
0.15663765 -0.046330534 -0.20937678 -0.045319974 -0.10426227 0.058177784 0.040352896 0.04849153
0.041838456 -0.20924164 0.117181964 -0.259276 -0.18043101 -0.11668384 -0.15258078 0.07625003
0.11298195 0.0686652 0.110938035 0.08213534 -0.020228736 -0.06159434 0.15545712 -0.13448316
-0.12599385 0.084195286 -0.17524058 -0.09613282 0.11247392 0.13273858 -0.024674669 0.02759132
-0.15551147 -0.03397667 -0.0456213 0.053291295 0.020964729 0.06466129 -0.058107354 -0.04035328
-0.054357767 -0.07664619 0.024083985 0.06240328 0.09136682 0.042945296 0.14529397 0.0328194
-0.11419136 0.033172 0.09607925 0.0891621 0.034355238 -0.21847372 -0.03612279 -0.11420214
-0.27372128 0.06521497 0.051608015 -0.12488054 -0.02413851 0.12596506 0.09627518 -0.2642844
0.034347255 -0.16209815 0.046140876 0.043134637 0.04024005 -0.2324546 0.11378919 -0.029884435
