models/crawler_actor.pth (torch_old, 813199 bytes, 6 tensors)

fc1.weight f4 [512, 129]
0	0xbcff9ea8	-0.031203583
1	0xbe23f23f	-0.16010378
2	0x3d04467b	0.032293778
3	0x3c61fc0d	0.013793004
4	0xbddaa437	-0.10675853
5	0x3e30c323	0.17261939
6	0x3e9a6b04	0.3015977
7	0xbeae2824	-0.34015
8	0xbd21097a	-0.03931568
9	0x3e1e2d49	0.15446962
10	0xbae1f2e0	-0.001723852
11	0x3c86b7f9	0.016445147
12	0x3dc60c09	0.09670264
13	0x3da5b4a2	0.080910936
14	0xbd87919e	-0.06619571
15	0x3c86eca2	0.016470257
16	0xbda4d5bf	-0.08048581
17	0xbc7198d6	-0.014745912
18	0x3d39a73a	0.045325495
19	0x3beb09ec	0.0071728136
20	0x3e1e4526	0.15456066
21	0xbd8fdfee	-0.07025133
22	0xbddd1fbb	-0.10797068
23	0xbe252178	-0.16126049
24	0xbcb28b15	-0.021794835
25	0x3d2b812c	0.041871235
26	0x3d262d5f	0.040570613
27	0xbd819456	-0.06327121
28	0xbdb73c4b	-0.08947047
29	0xbc27a14c	-0.010231327
30	0xbd92717c	-0.07150552
31	0xbdf07809	-0.11741645
32	0x3db1bfa9	0.086791344
33	0x3d53aacd	0.05167656
34	0x3dea0407	0.114265494
35	0x3d17770f	0.036978777
36	0xbe66f147	-0.22552978
37	0xbdbebb14	-0.09313026
38	0xbdb76fb9	-0.08956856
39	0x3d4e91d4	0.05043204
40	0x3e0696e0	0.13143492
41	0x3d3073cf	0.043079194
42	0x3bc58800	0.0060281754
43	0x3a91b880	0.0011117607
44	0xbe13865f	-0.14406727
45	0xbca69219	-0.020333337
46	0xbd2d268b	-0.042273086
47	0x3da87a2b	0.08226427
48	0xbdacf1fd	-0.08444593
49	0x3cb1c2c3	0.021699315
50	0xbe5dd941	-0.21664907
51	0xbd690156	-0.05688604
52	0x3d8e8264	0.06958464
53	0x3e159245	0.14606579
54	0x3dc41250	0.09573805
55	0xbde6f56a	-0.11277278
56	0xbcbdcb57	-0.023168249
57	0x3b26f400	0.0025475025
58	0xbcfc37b0	-0.030788273
59	0x3e0b59d9	0.13608493
60	0xbdf8d889	-0.12150676
61	0x3db00905	0.0859547
62	0xbdfd74e2	-0.12375809
63	0x3d0c0964	0.034188643
64	0xbe22c6af	-0.15896104
65	0xbd85f1ea	-0.06540282
66	0x3dcc448e	0.09974013
67	0x3e5746f1	0.21023156
68	0x3e10574b	0.140958
69	0x3d850512	0.06495108
70	0x3b7cc190	0.003856752
71	0xbcc1f2ba	-0.023675311
72	0xbe084dcc	-0.13310927
73	0xbd0f698f	-0.035012778
74	0xbdd46984	-0.10371688
75	0x3dab94ef	0.08378016
76	0x3e11ff00	0.14257431
77	0x3acbd21b	0.0015550287
78	0xbe496c64	-0.19670254
79	0xbe09685e	-0.13418719
80	0x3d08b35a	0.033374168
81	0xbc4054d8	-0.011738978
82	0xbd87f06f	-0.06637656
83	0xbd6337d2	-0.055473156
84	0xbd01b2ef	-0.031664785
85	0xbcdf5275	-0.027260998
86	0xbdd3d800	-0.10343933
87	0xbe28e742	-0.16494468
88	0xbc22cd26	-0.0099366065
89	0x3da027fb	0.07820126
90	0x3dc71cb8	0.097222745
91	0xbd523d38	-0.051327914
92	0xbe8d77d2	-0.27630478
93	0xbd2dde36	-0.042448245
94	0x3e08f182	0.13373378
95	0x3b6967fb	0.0035614956
96	0xbde34bc8	-0.110984385
97	0xbcd7d58c	-0.026346944
98	0xbafd7520	-0.0019337274
99	0xbcf5f1a9	-0.03002246
100	0xbe2c6b3e	-0.16837785
101	0xbc52dee4	-0.012870524
102	0x3d0351bc	0.03206037
103	0x3d7be722	0.061499722
104	0x3d9c8e5f	0.07644343
105	0x3d23a763	0.039954554
106	0xbd82e51d	-0.06391356
107	0x3b6aef8b	0.0035848345
108	0xbd205120	-0.039139867
109	0x3e5204e0	0.20509672
110	0xbd80247b	-0.06256958
111	0xbdd99c79	-0.10625548
112	0xbd42b45d	-0.04753529
113	0x3d2875a7	0.041127827
114	0xbda693cc	-0.08133659
115	0x3dc4fe8c	0.096188635
116	0x3d0cea7d	0.034403313
117	0x3ce4fd96	0.02795295
118	0x3e4d4a96	0.20047984
119	0x39f7d8fe	0.00047273183
120	0xbda2bb7d	-0.07945917
121	0xbd81db3e	-0.06340645
122	0xbda2c7d2	-0.07948269
123	0x3d1d07db	0.03833757
124	0xbdacd93b	-0.08439871
125	0xbcc85e5f	-0.024459062
126	0x3cbe87ae	0.023258056
127	0xbad33f60	-0.001611691
128	0xbdbc179b	-0.0918419
129	0x3cebebaa	0.028798897
130	0x3d60cd38	0.05488321
131	0xbb1bb088	-0.0023756344
132	0xbd16800d	-0.036743212
133	0x3cb1dd29	0.021711903
134	0xbe3bf519	-0.18355216
135	0x3de07635	0.10960046
136	0x3e3d6ac9	0.18497767
137	0x3d8aa5c3	0.06769898
138	0x3e62bb07	0.22141658
139	0x3cb5ab22	0.022176329
140	0xbd740838	-0.05957815
141	0x3d233441	0.039844755
142	0x3e17d6ac	0.14827985
143	0x3d73e114	0.059540823
144	0x3d8002ee	0.06250559
145	0xbcc53ed1	-0.024077805
146	0x3cfd041e	0.030885752
147	0xbd541c9c	-0.051785097
148	0x3dbb1b62	0.09136082
149	0x3c304fba	0.010761196
150	0xbd935743	-0.07194378
151	0x3d4b0a50	0.04957038
152	0x3d90dfab	0.07073911
153	0x3c7c5732	0.015401648
154	0x3d9b98b4	0.07597485
155	0xbd4a739a	-0.049426652
156	0x3c8ad1a5	0.01694567
157	0x3d4f71e6	0.05064573
158	0x3d149c0f	0.03628164
159	0xbcd42fdf	-0.025901733
160	0xbe1bfcaa	-0.15233102
161	0xbe117500	-0.14204788
162	0x3e20d6c0	0.1570692
163	0xbd876f93	-0.06613078
164	0x3dc2837b	0.09497734
165	0xbdae1e58	-0.08501881
166	0xbe22bf4f	-0.15893291
167	0x3c8305ff	0.01599407
168	0xbd66c947	-0.056344297
169	0xbd1b574d	-0.037925053
170	0xbb158503	-0.0022814877
171	0xba5ba2c0	-0.00083784387
172	0xbcae7349	-0.021295207
173	0x3d2f07aa	0.04273192
174	0xbd2259cd	-0.039636422
175	0xbd04e501	-0.032444958
176	0x3c8465d5	0.016161839
177	0x3d7db781	0.06194258
178	0xbd656ea4	-0.05601372
179	0x3dab848d	0.083748914
180	0xbcc47798	-0.023982808
181	0x3cb3f66a	0.021968085
182	0xbd80e943	-0.06294491
183	0xbd6fe1e3	-0.05856503
184	0x3d9a6bea	0.07540114
185	0xbc80f833	-0.01574335
186	0xbd0caedc	-0.034346446
187	0x3ae83462	0.0017715807
188	0xbcb6ebe2	-0.022329275
189	0xbd2b5cc5	-0.04183652
190	0xbca68df2	-0.020331357
191	0xbd4ab88b	-0.0494924
192	0x3c2fa4aa	0.010720411
193	0xbc0bb45c	-0.008526888
194	0xbcc4ae1a	-0.0240088
195	0x3cec60c9	0.028854745
196	0xbcfd77e4	-0.030940957
197	0xbd02ed4f	-0.031964596
198	0xbdc50533	-0.09620132
199	0xbc0d61d4	-0.008629281
200	0xbc91df42	-0.017806653
201	0xbd57370b	-0.052542727
202	0x3cba75ae	0.022761192
203	0x3d37d6d3	0.044882607
204	0x3d11186e	0.03542369
205	0x3e7c76be	0.24654672
206	0x3d9c30b6	0.076264784
207	0x3e1ee89c	0.15518421
208	0xbb497aea	-0.0030743429
209	0x3bd420a9	0.00647362
210	0xbd88e0ec	-0.066835254
211	0x3d5b4e8b	0.0535417
212	0x3d67694c	0.056496903
213	0x3d720b64	0.059092894
214	0x3c257664	0.010099027
215	0x3dbc35cd	0.09189949
216	0xbe6916ee	-0.22762653
217	0x3cac9ca0	0.021070778
218	0x3dd45285	0.10367302
219	0xbbef3551	-0.007300057
220	0x3d4ef6d3	0.05052836
221	0x3de15ea9	0.11004383
222	0xbd63d99c	-0.05562745
223	0x3e15952f	0.1460769
224	0xbce17285	-0.027520427
225	0xbdcc7ed5	-0.09985129
226	0x3ce59606	0.028025638
227	0x3d0a8a5d	0.03382336
228	0x3d0d2c51	0.03446609
229	0x3dc13d43	0.09435513
230	0x3c9a4662	0.01883239
231	0x3c792756	0.015207132
232	0x3d901ee9	0.07037146
233	0x3d83b0ca	0.06430204
234	0x3a5677a1	0.0008181278
235	0x3d454523	0.048161637
236	0xbdfe7a87	-0.12425714
237	0xbd4c7b48	-0.049922258
238	0x3d512ec6	0.051069997
239	0x3cfa1aec	0.030530415
240	0xbc8e2522	-0.01735169
241	0xbd5f82a6	-0.054567955
242	0x3c895dc4	0.016768344
243	0xbaf96f70	-0.0019030403
244	0xbd44ac77	-0.048016038
245	0x3e1aaa2f	0.15103982
246	0x3e482bd7	0.19547974
247	0x3e052b22	0.13004735
248	0x3becd9d1	0.007228114
249	0xbd245db9	-0.040128443
250	0xbcfa0206	-0.030518543
251	0xbda8d2fd	-0.08243368
252	0xbd83646f	-0.064156406
253	0xbdaf969e	-0.0857365
254	0x3ce1a8aa	0.027546246
255	0xbcd7a3a0	-0.02632314

fc1.bias f4 [512]
0	0xbc13047b	-0.008973236
1	0x3d91d734	0.07121125
2	0x3dc51c32	0.096245185
3	0x3dde9c67	0.10869675
4	0xbd7a1d1c	-0.061062917
5	0x3d8a7129	0.06759865
6	0x3daac81a	0.083389476
7	0x3d1b3b10	0.037898123
8	0xbd4387bb	-0.047736865
9	0x3c6fd32f	0.014637752
10	0xbd307ef7	-0.043089833
11	0xbd60062d	-0.05469339
12	0xbd4ff513	-0.05077083
13	0xbd3289d6	-0.04358848
14	0x3e03ff76	0.1289042
15	0xbd89eff7	-0.06735223
16	0xbcefe35e	-0.029283222
17	0xbd64ab64	-0.055827513
18	0xbbf85648	-0.007578645
19	0xbd6f0798	-0.05835685
20	0xbb881934	-0.004153395
21	0xbcee8bf1	-0.029119464
22	0xbdcd9654	-0.100384384
23	0xbd67c210	-0.056581557
24	0x3cd29b25	0.025708744
25	0x3ca7513e	0.020424481
26	0x3c8396a1	0.016063036
27	0x3d29e058	0.041473716
28	0xbda43480	-0.08017826
29	0x3de1947a	0.11014648
30	0x3d11a2e4	0.035555735
31	0x3da80a2e	0.082050666
32	0x3cb05a53	0.021527445
33	0x3cb44770	0.02200672
34	0xbcc3a9b9	-0.023884641
35	0x3d4daba9	0.050212536
36	0xbd36db5c	-0.04464279
37	0xbd526a63	-0.05137099
38	0xbcddf019	-0.027092027
39	0x3dcc3a94	0.099721104
40	0xbd0d96eb	-0.034567755
41	0xbd998198	-0.07495421
42	0xbba12cef	-0.0049186866
43	0xbdbd642b	-0.09247621
44	0x3d01e989	0.031716857
45	0xbdd2a87a	-0.102860406
46	0xbd46287b	-0.04837845
47	0xbce433e3	-0.027856773
48	0x3de2d165	0.11075095
49	0xbd4c5b5f	-0.049891826
50	0xbe124c52	-0.14286926
51	0x3dd57bfa	0.10424037
52	0x3da14250	0.07873976
53	0x3a7d1b8a	0.0009655288
54	0x3abb5284	0.0014291559
55	0x3bfbfd13	0.007690081
56	0x3d4b2245	0.04959323
57	0x3d44d92e	0.04805868
58	0x3d274a1c	0.04084216
59	0xbd29d433	-0.041462135
60	0xbd4da173	-0.050202798
61	0xbd02b645	-0.031912107
62	0x3d24464d	0.040106107
63	0x3d7c89b2	0.061654754
64	0xbd818399	-0.063239284
65	0x3ba19430	0.0049309954
66	0x3cba8ac5	0.022771249
67	0xbd05f873	-0.032707643
68	0x3d6541c9	0.05597094
69	0xbd5dd9d6	-0.054162823
70	0x3d0d7a32	0.034540363
71	0x3da53a5a	0.0806777
72	0xbd613190	-0.054978907
73	0x3ce645c9	0.028109448
74	0xbdfbf9be	-0.12303494
75	0xbd86ae96	-0.065762684
76	0x39ea7438	0.00044718548
77	0x3c80de6c	0.015731059
78	0x3d9325ac	0.0718492
79	0x3d15bf85	0.0365596
80	0x3d849b63	0.0647495
81	0x3d45c992	0.048287936
82	0xbd66c83e	-0.05634331
83	0xbc54adcd	-0.01298089
84	0xbd4180a5	-0.047241826
85	0xbd7cbd9c	-0.061704263
86	0xbd152b6e	-0.03641837
87	0x3d4b5080	0.049637318
88	0x3de26c8b	0.11055859
89	0xbce072fe	-0.027398583
90	0xbcc27bda	-0.023740698
91	0x3e05e179	0.13074292
92	0x3d49e729	0.049292717
93	0xbcd3135f	-0.025766073
94	0x3d73b952	0.059502907
95	0x3c80f8ce	0.01574364
96	0xbcedc325	-0.029023716
97	0x3d39d722	0.045371182
98	0x3c329465	0.010899638
99	0x3d524684	0.05133678
100	0xbae0fd08	-0.0017165253
101	0xbb7d3871	-0.0038638378
102	0x3dae4587	0.08509355
103	0x3d6d2107	0.057892825
104	0xbcaf2274	-0.021378733
105	0xbc33e07f	-0.010978817
106	0x3b14456e	0.002262439
107	0xbd21af54	-0.039473847
108	0xbbe1bec8	-0.006889198
109	0xbd9fb6fc	-0.077985734
110	0xbd762f12	-0.060103483
111	0xbda80402	-0.082038894
112	0x3bbe2506	0.0058027534
113	0x3ccc340f	0.024927167
114	0xbe109882	-0.14120677
115	0xbd29891f	-0.041390534
116	0x3d24c0d6	0.040222965
117	0xbdaa10e9	-0.083040066
118	0xbd427de0	-0.047483325
119	0x3d105102	0.035233505
120	0x3d7081c4	0.058717504
121	0x3d7e2e02	0.062055595
122	0xbd0c2d49	-0.034222875
123	0x3d2479cd	0.04015522
124	0x3d10341d	0.03520595
125	0xbdb36049	-0.08758599
126	0xbd33ee23	-0.043928277
127	0xbdb24a36	-0.08705561
128	0x3cca9ea8	0.024733856
129	0xbc8b87ee	-0.01703259
130	0x3df4a08f	0.119446866
131	0xbd25f32b	-0.040515106
132	0x3d9c7766	0.07639961
133	0x3cb15b5e	0.021650013
134	0x3cf34172	0.029694293
135	0xbcccb9af	-0.024990885
136	0x3d6ad9fc	0.057336792
137	0xbde38b04	-0.111104995
138	0x3db147ca	0.08656271
139	0xbe2c81d9	-0.16846408
140	0x3d30aa0a	0.043130912
141	0x3c0cb9c2	0.00858921
142	0x3a3c9f0f	0.00071953324
143	0x3a992045	0.0011682591
144	0xbd17f448	-0.0370982
145	0xbd9b4f56	-0.075834915
146	0x3d6ea517	0.05826291
147	0x3d4914f2	0.04909224
148	0x3bfc9893	0.007708618
149	0x3d11e0ce	0.03561478
150	0x3d681b52	0.05666668
151	0x3e04d772	0.12972811
152	0x3d68d79a	0.05684624
153	0xbbde76d6	-0.0067890687
154	0xbcdefee5	-0.027221153
155	0x3dc975b3	0.098369025
156	0x3d5c2b1c	0.05375205
157	0x3d0e82be	0.034792654
158	0xbd51dfff	-0.05123901
159	0x3d94e91e	0.07271026
160	0x3d9b3a4d	0.07579479
161	0xbd8c8bf8	-0.068626344
162	0xbd9edb23	-0.07756641
163	0xbdc5deae	-0.096616134
164	0xbd20a809	-0.03922275
165	0x3d8ad1e1	0.067783125
166	0x3dc439c4	0.095813304
167	0x3d45fadf	0.048334952
168	0xbdb1ddeb	-0.086849056
169	0xbd5e2054	-0.05423005
170	0xbd80dd8d	-0.062922575
171	0xbc4d8490	-0.012543812
172	0xbcefcdaa	-0.029272873
173	0xbd6f0c30	-0.058361232
174	0x3d82f4f1	0.06394375
175	0xbcaad7f5	-0.02085493
176	0x3cdeaf20	0.027183115
177	0xbcf74a0d	-0.030186677
178	0x3dbb496d	0.09144864
179	0x3cb08750	0.021548897
180	0x3e06ac0e	0.13151571
181	0x3d40b9ef	0.04705232
182	0xbd7de390	-0.0619846
183	0xbde6bf4b	-0.11266955
184	0xba67f1a8	-0.000884796
185	0x3d970d18	0.07375544
186	0xbca8afa0	-0.020591557
187	0x3d6774f4	0.05650802
188	0xbd173ea6	-0.03692498
189	0x3d717502	0.058949478
190	0xbcd6ab9d	-0.026204878
191	0xbd591fcc	-0.05300884
192	0x3cee2b4b	0.029073378
193	0xbda99b81	-0.08281613
194	0x3d503cde	0.050839297
195	0xbc26d3c6	-0.010182327
196	0xbda01980	-0.07817364
197	0x3d43758d	0.047719527
198	0xbd64076d	-0.055671144
199	0x3c97b755	0.018520037
200	0xbdd76e92	-0.105191365
201	0xbd3a8942	-0.045541056
202	0xbd99565a	-0.074871734
203	0x3b2de4d0	0.0026534088
204	0x3de53850	0.111923814
205	0xbd282d44	-0.041058794
206	0x3b43f57f	0.0029900966
207	0x3dbb3aa4	0.09142044
208	0x3d91f459	0.07126684
209	0x3cf404a9	0.029787378
210	0xbcba3758	-0.022731468
211	0xbd42e9ef	-0.047586378
212	0x3d7f1f5f	0.062285777
213	0x3dd9b2e9	0.106298275
214	0x3dd72c22	0.105064645
215	0xbc52ff26	-0.012878215
216	0xbd50dc64	-0.05099143
217	0x3d865169	0.065584965
218	0xbceb296e	-0.028706279
219	0x3d08a6e4	0.033362284
220	0x3ce18cf0	0.027533025
221	0xbc83ea80	-0.01610303
222	0xbc87c6ee	-0.01657435
223	0xba175832	-0.0005773335
224	0x3d9cede3	0.07662561
225	0x3dbeb535	0.09311906
226	0x3d64829e	0.05578863
227	0xbdb79153	-0.08963265
228	0x3d958edd	0.0730264
229	0xbceb7324	-0.028741427
230	0x3d9a1343	0.07523205
231	0xbd40311e	-0.04692184
232	0xbdbeb26c	-0.09311375
233	0xbd57e221	-0.052705888
234	0xbd7b42a9	-0.06134287
235	0xbbc24e51	-0.005929746
236	0x3d947558	0.07248944
237	0xbcda7e24	-0.026671477
238	0x3cdd742d	0.027032936
239	0x3da5ba79	0.080922075
240	0xbd16b167	-0.036790278
241	0x3d30bcc5	0.043148775
242	0xbe0bf613	-0.13668089
243	0x3de68f0c	0.11257753
244	0x3c95cbc3	0.018285638
245	0x3d51ea77	0.051248994
246	0xbcc3b9b8	-0.023892269
247	0x3d8a689a	0.067582324
248	0xbb13c38a	-0.002254697
249	0x3cd43a06	0.025906574
250	0x3bf976f2	0.0076130563
251	0x3db1ed41	0.08687831
252	0x3d273ca2	0.04082931
253	0xbd437b3c	-0.047724947
254	0xbd82e8e0	-0.06392074
255	0xbcc9db84	-0.024640806

fc2.weight f4 [256, 512]
0	0x3d08283d	0.0332415
1	0x3d48c091	0.04901177
2	0xbc3fdd0b	-0.011710416
3	0x3c81f48c	0.01586368
4	0xbd8f17c5	-0.069869556
5	0xbd39790e	-0.045281462
6	0xbb686ad3	-0.0035464063
7	0xbbb65ad9	-0.005565029
8	0xbd387635	-0.045034606
9	0x3db87214	0.09006134
10	0x3e34efe7	0.1766964
11	0x3d0057af	0.03133362
12	0x3e481c03	0.19541936
13	0xbded4148	-0.11584717
14	0x3ca13786	0.019679796
15	0xbc1e385d	-0.009656993
16	0xbd067f03	-0.03283597
17	0x3e3b936d	0.18317957
18	0xbd306812	-0.043068
19	0xbcca60f2	-0.02470443
20	0x3dc7667b	0.097363435
21	0x3e55716d	0.2084405
22	0x3e06a893	0.13150243
23	0xbd9b034d	-0.07568989
24	0xbcf12c1f	-0.029439984
25	0xbdeec178	-0.11657995
26	0x3da41cd9	0.08013315
27	0x3da6e414	0.08148971
28	0x3dccf1c6	0.10007052
29	0xbd42390d	-0.04741769
30	0xbd1bf13b	-0.038071852
31	0x3c567ba9	0.013091006
32	0x3d7340fd	0.05938815
33	0x3d181331	0.037127677
34	0x3dff3e96	0.12463109
35	0x3dbdf8dd	0.092759825
36	0xbd8737a6	-0.06602411
37	0xbe2dabfd	-0.1696014
38	0xbb8a6966	-0.0042239903
39	0xbe4af69a	-0.19820634
40	0xbab5c780	-0.001386866
41	0x3d882b9c	0.06648943
42	0x3d4e8ac6	0.050425313
43	0xbd821d4d	-0.06353245
44	0x3d935193	0.071932934
45	0x3d74c557	0.05975851
46	0xbe2caac3	-0.16862015
47	0xbc9fe99e	-0.019520577
48	0xbd7685d5	-0.060186226
49	0xbc25b2dd	-0.010113445
50	0x3e2f5854	0.17123538
51	0x3d6a24ec	0.057164118
52	0x3da3f727	0.08006125
53	0x3e657c63	0.22410731
54	0xbe12e4ad	-0.14345045
55	0xbd2ead7d	-0.04264592
56	0x3dbbfedc	0.0917947
57	0xbd3353ff	-0.043781277
58	0x3c82e1aa	0.015976746
59	0xbce31fd2	-0.027725134
60	0x3dd3d24a	0.10342844
61	0x3d065beb	0.032802504
62	0x3d147d95	0.036252577
63	0xbe19c8a8	-0.1501795
64	0x3daa8504	0.08326152
65	0x3e1fee01	0.15618135
66	0x3d883553	0.06650796
67	0x3d003111	0.031296793
68	0x3cba0dda	0.022711683
69	0xbd38cba8	-0.045116097
70	0xbd029ce4	-0.031887904
71	0xbc963694	-0.018336572
72	0x3db1efaa	0.086882904
73	0xbca03a52	-0.01955906
74	0x3e0a8184	0.13525969
75	0xbcad9698	-0.021189973
76	0xbdddc296	-0.1082813
77	0x3d2d15fd	0.042257298
78	0xbd4ae98d	-0.049539138
79	0xbe1d50e1	-0.15362884
80	0xbdb84656	-0.089977905
81	0x3d4b2a88	0.049601108
82	0x3d4e58ac	0.050377533
83	0x3cdce3ff	0.026964186
84	0xbd80d3c9	-0.06290395
85	0xbdf0efb9	-0.117644735
86	0x3b9d3d00	0.0047985315
87	0xbd0a4c4e	-0.033764176
88	0x3c39ed15	0.011348029
89	0xbd88f63f	-0.06687593
90	0x3e365e19	0.17809333
91	0x3d1b1409	0.037860904
92	0x3d2e718d	0.04258876
93	0x3d66077a	0.056159474
94	0x3de8e65c	0.113720626
95	0x3d4f33a8	0.050586373
96	0xbd390ea5	-0.04517998
97	0xbd68084b	-0.056648534
98	0x3e2465b8	0.16054428
99	0xbd9e73d9	-0.0773694
100	0x3e0fd98e	0.14047834
101	0xbcfb05d9	-0.030642437
102	0x3d48e52b	0.049046677
103	0x3d2707e5	0.040779013
104	0xbcd0783c	-0.025447957
105	0xbdeaaecc	-0.11459121
106	0x3cb861e4	0.022507615
107	0x3d8e08df	0.06935286
108	0xbcc1018f	-0.023560314
109	0xbe0cc59d	-0.13747258
110	0xbe344e01	-0.17607881
111	0x3da40514	0.08008781
112	0x3cc3f666	0.023921203
113	0x3d405a4d	0.046961118
114	0x3d3363f7	0.043796506
115	0x3d867bd7	0.06566589
116	0x3c9a71af	0.018853037
117	0x3cf0f987	0.029415859
118	0x3dde3568	0.1085003
119	0x3dddecf2	0.10836209
120	0x3ddb1bc8	0.10698658
121	0x3b7354f8	0.0037129503
122	0xbe2148e5	-0.15750463
123	0xbc45cb5f	-0.012072413
124	0xbc67aaff	-0.01413989
125	0x3cb8442e	0.022493448
126	0x3d40ea44	0.047098413
127	0xbdb58b22	-0.08864428
128	0xba785892	-0.0009473647
129	0xbbfb7377	-0.0076736766
130	0x3ddae83e	0.10688828
131	0xbdd9c442	-0.10633136
132	0x3d5f726f	0.05455249
133	0x3daa5ea4	0.083188325
134	0xbca4a6b9	-0.02009903
135	0xbda4cad2	-0.080464974
136	0x3db5bf33	0.08874359
137	0xbde58589	-0.112071104
138	0xbdf80bf1	-0.12111653
139	0x3d924258	0.0714156
140	0x3dbb31ca	0.09140356
141	0xbe5573c9	-0.2084495
142	0xbe0e2811	-0.13882472
143	0x3d5e1b4a	0.054225244
144	0x3e5c2af1	0.21500756
145	0xbe800f99	-0.250119
146	0x3ddf47d4	0.10902372
147	0x3c5b1d35	0.013373663
148	0x3d983c0d	0.07433329
149	0x3d1600a4	0.036621705
150	0xbe203841	-0.15646459
151	0xbc6042bb	-0.013687785
152	0xbe2cccfb	-0.16875069
153	0x3e385534	0.18001252
154	0xbde85c46	-0.11345725
155	0x3cc2011b	0.023682168
156	0x3d95d4ca	0.07315977
157	0xbbe6acb8	-0.0070396326
158	0xbcb9dd66	-0.022688579
159	0xbd499398	-0.049213022
160	0xbb858f4c	-0.00407592
161	0xbe240e7d	-0.16021152
162	0x39faac92	0.0004781229
163	0xbe2fa920	-0.1715436
164	0xbd148c32	-0.036266513
165	0xbd2350ef	-0.039872106
166	0x3d930bdf	0.071799986
167	0x3be52402	0.006992818
168	0x3dba0e0e	0.09084712
169	0xbdb87c05	-0.0900803
170	0xbc2625d1	-0.010140852
171	0xbd51e332	-0.05124206
172	0xbc299b03	-0.010351899
173	0xbc8b7106	-0.017021667
174	0x3d8b5d8f	0.06804954
175	0xbd3c565a	-0.04598079
176	0xbe28de3c	-0.16491026
177	0xbcbb00e3	-0.022827571
178	0x3cd0dd1f	0.025496064
179	0x3da349c6	0.079730555
180	0x3d2eb0d2	0.042649098
181	0x3c24b082	0.010051848
182	0x3cf5a280	0.029984713
183	0xbde8694e	-0.1134821
184	0x3dbfe313	0.09369483
185	0xbccd9e2e	-0.02509984
186	0x3dc728b9	0.09724564
187	0x3e66f483	0.22554211
188	0xbd229493	-0.039692473
189	0xbc95f83b	-0.018306842
190	0x3d73af62	0.05949343
191	0xbcc3289b	-0.023823073
192	0xbc0a8ca5	-0.008456384
193	0xbbc2e5ae	-0.00594779
194	0x3dbf2c37	0.09334605
195	0xbdd132c5	-0.10214762
196	0xbc8254d8	-0.015909597
197	0x3df8403c	0.12121627
198	0x3d9c2b8d	0.07625494
199	0x3b13a470	0.0022528432
200	0xbd83d22e	-0.06436573
201	0x3e133089	0.14373983
202	0xbd10672b	-0.03525464
203	0x3d7aa438	0.061191767
204	0x3c139e7c	0.009009954
205	0xbd550deb	-0.052015226
206	0xbd6c6942	-0.05771757
207	0x3dddb72d	0.10825954
208	0x3d8e598c	0.069506735
209	0xbd8dfdfb	-0.069332086
210	0xbe0631d3	-0.13104944
211	0xbdeb9d1b	-0.11504575
212	0x3c46c835	0.012132694
213	0xbcb17534	-0.021662332
214	0x3dbb904e	0.09158383
215	0xbdb40c02	-0.08791353
216	0x3d5f2705	0.05448057
217	0x3da4de34	0.080501944
218	0x3c96e81f	0.01842123
219	0xbd670fe2	-0.05641163
220	0x3d04896f	0.03235763
221	0x3dd818b3	0.10551586
222	0xbde75fa9	-0.112975426
223	0xbda6c24b	-0.08142527
224	0x3de02c05	0.10945896
225	0x3c369740	0.011144459
226	0xbd75f16a	-0.060044684
227	0xbd1ac87d	-0.037788857
228	0xbcbfcd43	-0.023413306
229	0x3d8aa3fd	0.067695595
230	0xbb4e86c2	-0.0031513427
231	0x3cf87a96	0.030331891
232	0x3e35820f	0.17725395
233	0x3d25f6ba	0.0405185
234	0x3e041907	0.12900172
235	0xbc12005d	-0.008911219
236	0x3db1d5c3	0.0868335
237	0x3e09dc9d	0.13463064
238	0x3d200588	0.039067775
239	0x3e0df117	0.138615
240	0x3d3b7d59	0.045773838
241	0xbd345ae9	-0.04403201
242	0x3e0a4161	0.13501503
243	0xbb955062	-0.0045567015
244	0x3d769994	0.060205057
245	0xbbb45f5f	-0.005504533
246	0xbcf45282	-0.029824499
247	0xbd089ee0	-0.03335464
248	0x3d9fe4fb	0.078073464
249	0x3c5f322c	0.013622802
250	0xbe4675d6	-0.19380888
251	0x3c9454e7	0.01810689
252	0x3bfc9a64	0.0077088345
253	0x3c84fcb4	0.01623378
254	0x3e10d0b3	0.14142112
255	0xbd59c9a6	-0.053170823

fc2.bias f4 [256]
0	0x3c28e391	0.010308162
1	0xbcbb17e6	-0.022838544
2	0x3d02bc17	0.031917658
3	0x3cb9ba32	0.022671793
4	0xbb0a9c2d	-0.0021150217
5	0x3c855487	0.016275657
6	0x3da0620e	0.078312024
7	0xbd14d77c	-0.036338314
8	0x3d24e08b	0.040253203
9	0xbc6d21c5	-0.014473383
10	0x3d0fab39	0.0350754
11	0x3c3c8d19	0.01150825
12	0xbd8eb14d	-0.06967411
13	0x3dbcbaa1	0.09215284
14	0xbbc60e9c	-0.006044222
15	0xbd9729d1	-0.07381023
16	0x3de379ea	0.11107238
17	0x3d8028cd	0.06257782
18	0xbbe3040e	-0.0069279736
19	0x3dacb109	0.08432204
20	0xbccae364	-0.024766631
21	0x3d3ee291	0.04660279
22	0x3c178f38	0.009250455
23	0x3d046667	0.03232422
24	0x3d5f0937	0.054452147
25	0x3d8fc838	0.070206106
26	0x3c13ad9e	0.0090135615
27	0x3ca8eada	0.020619798
28	0x3ced5026	0.028968882
29	0xbd28bd35	-0.041196067
30	0xbd736797	-0.059424963
31	0x3ac938d7	0.0015352023
32	0x3d092dac	0.03349082
33	0x3d169f6c	0.03677313
34	0xbce80632	-0.028323267
35	0xbc021607	-0.007939822
36	0x3d0f6154	0.03500493
37	0xbc811b51	-0.015760096
38	0x3cdddd05	0.02708293
39	0x3be07de6	0.0068509458
40	0x3d266887	0.04062703
41	0x3c868304	0.016419895
42	0xbbd2c21e	-0.006431832
43	0x3df214e5	0.118203916
44	0x3cdb6e18	0.026785895
45	0xbd36ca50	-0.044626534
46	0x3d38bfa3	0.045104634
47	0x3d51e06a	0.05123941
48	0x3d29caeb	0.041453283
49	0x3bae6288	0.0053218044
50	0xbce043d3	-0.027376091
51	0xbc4ff563	-0.012692782
52	0xbb6030c3	-0.0034208752
53	0x3d48e3b3	0.049045276
54	0xbc44de62	-0.012015911
55	0x3d5abfed	0.05340569
56	0x3a8e65a3	0.001086403
57	0x3caeddf9	0.02134608
58	0x3d6bd4ab	0.057575863
59	0xbc341069	-0.010990241
60	0xbd9c0c63	-0.0761955
61	0xbc86b78d	-0.016444946
62	0xbd1ddf53	-0.038543057
63	0xbd446982	-0.047952183
64	0x3d82d3f8	0.06388086
65	0x3cd0e760	0.025500953
66	0xbd596dd2	-0.05308325
67	0x3a581416	0.0008242739
68	0x3d75717a	0.059922673
69	0x3cb6aba7	0.022298647
70	0x3cb5e353	0.022203123
71	0x3d457218	0.04820451
72	0xbc3e439e	-0.011612801
73	0x3db05b0f	0.08611118
74	0xbba03a8b	-0.0048897914
75	0xbd82f68e	-0.06394683
76	0x3dbc7bb8	0.09203285
77	0x3de6b39a	0.11264725
78	0x3bf3c429	0.0074391556
79	0xbbf3e7d0	-0.0074434057
80	0x3d295635	0.04134198
81	0x3c8bda9d	0.017072016
82	0x3b50e9d2	0.003187765
83	0x3d3e9c79	0.046535943
84	0x3cc1494c	0.023594521
85	0x3d0c6f46	0.034285806
86	0xbd3685c3	-0.04456116
87	0xbc50cb91	-0.0127438465
88	0x3d730af7	0.05933663
89	0x3d6308c5	0.055428285
90	0xbbecdfee	-0.007228843
91	0x3ce59cfd	0.02802896
92	0x3d885dac	0.066584915
93	0xbbde452a	-0.0067831473
94	0x3d0e7d23	0.03478731
95	0x3cebaf20	0.02877003
96	0x3d99b583	0.07505324
97	0x3d68cefa	0.056838013
98	0x3cd81aa2	0.026379887
99	0x3c8fbf4b	0.01754727
100	0xbdefdf32	-0.11712493
101	0x3d545632	0.051840015
102	0x3d0076fe	0.03136348
103	0x3d33fd84	0.043942943
104	0x3ca6de13	0.020369565
105	0x3d393b50	0.04522258
106	0xbcc7b622	-0.02437884
107	0xbd5bc55e	-0.05365502
108	0xbd3aef8b	-0.045638602
109	0xbcfacae4	-0.030614324
110	0x3d824b43	0.06362011
111	0x3ceb2f13	0.02870897
112	0x3d6b760b	0.05748562
113	0xbd1d966c	-0.03847353
114	0xbd7aa91b	-0.061196428
115	0x3cf30850	0.02966705
116	0xbbcdd431	-0.0062813987
117	0x3dc6a13f	0.09698724
118	0x3cc5ccd5	0.024145523
119	0x3ca94dc5	0.020666966
120	0x3d73205d	0.059357036
121	0x3cc21313	0.023690736
122	0xbcb180d9	-0.021667885
123	0x3c7fe54b	0.015618633
124	0xbd2d71e6	-0.04234495
125	0xbd1f2aa7	-0.038859036
126	0xbceb923a	-0.02875625
127	0xba8d7c79	-0.0010794542
128	0x3c5a2f97	0.01331701
129	0xbd15c1dd	-0.036561836
130	0x3de2187f	0.110398285
131	0xbd2c8d45	-0.042126913
132	0x3d923c2a	0.07140382
133	0x3d20bb37	0.039241042
134	0x3bd25ba4	0.006419616
135	0xbd15842d	-0.036503006
136	0x3cd24f37	0.025672538
137	0x3d06287d	0.032753456
138	0x3dbc75c5	0.0920215
139	0x3dc8c630	0.09803426
140	0x3cac7cc2	0.021055583
141	0x3c3651f4	0.011127938
142	0xbcbb1836	-0.022838693
143	0x3d23b84c	0.03997068
144	0x3c04f3b4	0.008114744
145	0x3d0613ef	0.032733854
146	0xbc9ef4e8	-0.01940389
147	0xbe1ffe74	-0.1562441
148	0xbc849f13	-0.016189134
149	0x3d382eee	0.04496663
150	0x3d862f4e	0.065519914
151	0xbce80ce8	-0.028326467
152	0x3d2030aa	0.03910891
153	0x3c8a1aca	0.016858477
154	0x3ca9b774	0.02071736
155	0x3cb06c0b	0.021535894
156	0x3c77b25d	0.015118209
157	0x3be2faa2	0.0069268504
158	0x3d4b871c	0.049689397
159	0xbc746f69	-0.01491914
160	0x3d2209ba	0.039560057
161	0x3cb6eb48	0.022328988
162	0x3c2e1bba	0.010626728
163	0x3d426607	0.047460582
164	0x3d2330cb	0.039841454
165	0x3d23b04c	0.03996305
166	0x3de212dd	0.11038754
167	0x3d27c31c	0.040957555
168	0xbc8e7a38	-0.017392263
169	0x3d0a1a90	0.03371674
170	0xb9bd8bf4	-0.00036153162
171	0x3bd80b61	0.0065931533
172	0x3d89ee89	0.0673495
173	0xbda49704	-0.080366164
174	0x3ca6c690	0.020358354
175	0xbd1048be	-0.035225622
176	0xbb2aa5c9	-0.0026038757
177	0xbd604d4b	-0.054761212
178	0x3ce9c066	0.028534126
179	0xbd0e50b3	-0.03474493
180	0xbd400927	-0.04688373
181	0xbc202f80	-0.00977695
182	0xbde10c43	-0.10988667
183	0x3db99ba4	0.09062889
184	0x3dca7155	0.098848976
185	0x3d74a7b1	0.059730235
186	0xbb3cd484	-0.0028813193
187	0xbd165a07	-0.03670695
188	0x3d23652c	0.039891407
189	0x3c3ea2c7	0.011635489
190	0xbcbb3bba	-0.022855628
191	0x3cbc08ae	0.022953358
192	0x3da1b6c3	0.07896187
193	0x3da14b96	0.07875745
194	0x3cb96981	0.022633316
195	0xbc44f104	-0.012020353
196	0xbd477cba	-0.048702933
197	0x3d1a5b52	0.037684746
198	0x3c2e5ee8	0.010642745
199	0x3ca7d59a	0.020487595
200	0xbb992747	-0.0046738717
201	0x3cbfba78	0.023404345
202	0xbc7066a7	-0.014672912
203	0xbc94e702	-0.01817656
204	0x3d008b02	0.03138257
205	0x3c825e6a	0.01591416
206	0xbc1a693f	-0.009424507
207	0x3d48b53e	0.04900097
208	0x3d66c44e	0.056339554
209	0x3c5ed5b3	0.013600755
210	0x3d2d127a	0.04225395
211	0x3d6a699a	0.057229616
212	0xbbd3b171	-0.0064603616
213	0x3d633f2e	0.055480175
214	0xbe1af426	-0.15132198
215	0x3d0f7f40	0.035033464
216	0x3c49abb0	0.012309
217	0x3c35091e	0.011049537
218	0x3cc50cda	0.02405398
219	0xbd4bed57	-0.04978689
220	0x3cbcfbed	0.023069346
221	0x3d3454db	0.044026237
222	0x3c6d5eb1	0.014487908
223	0xbd6945cc	-0.05695133
224	0xbd346fe5	-0.044052023
225	0x3d8528c2	0.065019146
226	0x3d63d49e	0.05562269
227	0x3c19ff86	0.0093993
228	0xbbe4c1e0	-0.0069811195
229	0x3cbfcc20	0.023412764
230	0x3beedf88	0.0072898306
231	0x3d730a3e	0.05933594
232	0xbc79b035	-0.015239765
233	0xbb97593d	-0.0046187923
234	0xbcb2e079	-0.021835553
235	0xbc4c8d95	-0.012484928
236	0x3b857e19	0.00407387
237	0x3c80dafa	0.015729416
238	0x3c1a69d7	0.009424648
239	0x3d289eb9	0.041166995
240	0xbcbca529	-0.023027973
241	0x3d41929d	0.047258962
242	0x3c38712e	0.011257453
243	0x3c19da39	0.009390407
244	0xbd54ec7e	-0.05198335
245	0x3c78fad6	0.015196523
246	0x3d1dbd04	0.038510337
247	0x3d15d49c	0.036579713
248	0x3d7d41d0	0.06183034
249	0xbcee1934	-0.029064752
250	0x3d81ef29	0.06344444
251	0xbbf2191e	-0.007388248
252	0xbbccebc9	-0.0062536937
253	0x3dd650a2	0.10464598
254	0x3d149956	0.036279045
255	0xbbcffe1b	-0.0063474304

fc3.weight f4 [20, 256]
0	0x3dd38a5f	0.103291266
1	0xbcfec2c6	-0.031098735
2	0x3da578cb	0.0807968
3	0x3d9e591f	0.07731842
4	0x3eef5622	0.46745402
5	0x3c29f71a	0.010373855
6	0x3d64babb	0.055842143
7	0x3e7f65bd	0.24941154
8	0x3de0611f	0.109560244
9	0x3ca61fb0	0.020278782
10	0x3dfcb2f4	0.1233882
11	0x3ad2d74c	0.0016085892
12	0x3ca25432	0.019815538
13	0x3c63567b	0.013875599
14	0xbdc704d2	-0.09717716
15	0x3df9294b	0.12166079
16	0x3c79dd40	0.015250504
17	0x3b56ebc4	0.0032794336
18	0xbd0ccece	-0.03437691
19	0xbd67ea25	-0.056619782
20	0x3e0bdb88	0.13657963
21	0xbd2c0bc4	-0.042003408
22	0xbc0d0c3e	-0.008608876
23	0x3e3850e1	0.17999603
24	0xbe235edc	-0.15954155
25	0xbceb3691	-0.028712543
26	0xbc8dbb66	-0.017301273
27	0x3de7d188	0.11319262
28	0xbc0da243	-0.008644643
29	0xbbf1f54e	-0.007383979
30	0x3e0f188d	0.13974209
31	0xbc1f4ae0	-0.009722441
32	0xbbed0a1b	-0.0072338707
33	0x3d10ca06	0.035348915
34	0x3e4fd3fa	0.20295706
35	0xbd2959b1	-0.041345302
36	0x3e10467d	0.14089389
37	0x3df8825c	0.12134239
38	0x3dea6594	0.11445156
39	0x3da574f5	0.080789484
40	0x3c930e9a	0.017951299
41	0xbc91679d	-0.017749602
42	0xbd40ec36	-0.04710027
43	0xbe7df5d5	-0.24800809
44	0x3d4e87ca	0.050422467
45	0x3cdbedea	0.026846845
46	0xbd4a1e5c	-0.04934536
47	0x3dada728	0.08479148
48	0xbd83c07f	-0.064332
49	0x3c8c9ca8	0.017164543
50	0x3d61a8fe	0.055092804
51	0x3bf929b9	0.0076038507
52	0xbd05379b	-0.032523733
53	0x3d48e3a7	0.04904523
54	0xbd858d03	-0.065210365
55	0x3c2e8e14	0.010653991
56	0xbdf34866	-0.11879043
57	0x3ce63dde	0.028105672
58	0xbc1457f8	-0.0090541765
59	0xba0555e9	-0.0005086349
60	0x3e32358d	0.1740324
61	0xbda92f3c	-0.08260962
62	0x3e5d7959	0.21628322
63	0xbd4dedce	-0.050275616
64	0xbc112678	-0.008859269
65	0x3cbf009c	0.02331572
66	0x3d2f8bc7	0.04285791
67	0x3cad2c13	0.02113918
68	0xbd174d9b	-0.036939245
69	0xbe08f760	-0.13375616
70	0x3b0958b6	0.0020957417
71	0x3d29da35	0.041467864
72	0xbce9c575	-0.028536538
73	0x3cad5c2a	0.021162111
74	0x3dc61ce3	0.096734785
75	0x3e33c494	0.17555457
76	0x3db8f95a	0.09031935
77	0x3e103686	0.14083299
78	0xbe1999b4	-0.1500004
79	0xbabcb038	-0.0014395779
80	0x3d8431bb	0.06454798
81	0x3c8613f0	0.016366929
82	0x3de5efc6	0.11227374
83	0xbd9457d9	-0.07243318
84	0x3bf3cd24	0.007440226
85	0x3dccad27	0.09993964
86	0x3daede1b	0.08538457
87	0x3e43d3a0	0.19123697
88	0xbd106300	-0.035250664
89	0x3acba52d	0.0015536897
90	0x3c38a84b	0.011270593
91	0xbb175f83	-0.00230977
92	0xbe1394a3	-0.14412169
93	0xbdb03961	-0.08604694
94	0xbe1e80e5	-0.15478857
95	0x3df96a23	0.12178447
96	0x3cae91fd	0.021309847
97	0x3dde4b62	0.10854222
98	0x3b679829	0.0035338497
99	0xbd9528b9	-0.07283158
100	0xbd418f75	-0.047255952
101	0x3e6b34e5	0.22969396
102	0xbdf28cd4	-0.11843267
103	0x3d76cad4	0.060252026
104	0x3dd8d0ad	0.10586677
105	0x3dd5f58f	0.10447227
106	0xbd872be2	-0.06600167
107	0xbd50913e	-0.050919764
108	0xbc17810e	-0.009247078
109	0xbde8c571	-0.11365784
110	0x3e2d9c1a	0.1695408
111	0x3c0911ac	0.00836603
112	0x3bad476d	0.0052880556
113	0xbb749ba1	-0.0037324207
114	0xbd624d0c	-0.05524926
115	0x3d0efaa2	0.03490699
116	0x3d98e16f	0.07464873
117	0x3d30ea19	0.043192003
118	0xbc2e79c0	-0.010649145
119	0xbd1f1caa	-0.038845696
120	0xbdee56e3	-0.11637666
121	0xbb8ea88d	-0.004353589
122	0xbc7c2c56	-0.01539143
123	0x3d8ce1a6	0.068789765
124	0x3e3483f8	0.17628467
125	0xbdb619c5	-0.08891634
126	0x3d89c603	0.06727221
127	0x3d98373d	0.07432411
128	0xbd532830	-0.051551998
129	0xbdbf1af3	-0.09331312
130	0xbc5dfb9e	-0.01354876
131	0x3db5d23c	0.0887799
132	0xbd278887	-0.040901687
133	0xbd8e910c	-0.06961259
134	0x3d1ff3d4	0.039050892
135	0xbbb1f868	-0.0054312237
136	0xbe211c4b	-0.15733449
137	0xbddd7042	-0.10812427
138	0xbd9d433b	-0.07678839
139	0xbd45deaa	-0.048308052
140	0x3e190fcf	0.14947437
141	0xbcfa21c5	-0.03053368
142	0xbb8256fa	-0.0039776536
143	0xbd2a0438	-0.04150793
144	0x3d03c396	0.032168947
145	0x3be94e70	0.007119946
146	0x3db041ac	0.08606276
147	0x3d9a3be4	0.075309545
148	0x3e489e57	0.19591652
149	0x3c2f2ea8	0.010692276
150	0xbcf39e5c	-0.029738598
151	0x3b7fa268	0.0039006714
152	0xbd21575d	-0.039389957
153	0x3d89222a	0.066959694
154	0x3eb25718	0.34832072
155	0x3caf512e	0.021401014
156	0xbaf89d3c	-0.0018967758
157	0xbaddd0e9	-0.0016923222
158	0x3dc56803	0.09638979
159	0x3e14c399	0.1452774
160	0x3e22c31e	0.15894744
161	0x3d05aad2	0.03263361
162	0x3e40e2b0	0.18836474
163	0xbb358270	-0.0027696155
164	0xbd2bcd31	-0.041943733
165	0xbdc3ab1d	-0.09554122
166	0xbde73db3	-0.11291065
167	0x3d9bba2f	0.07603871
168	0xbd1b3986	-0.037896655
169	0x3e1cbbbe	0.15305993
170	0x3d88049b	0.066415034
171	0x3db45ef1	0.08807171
172	0x3dddd5e9	0.10831816
173	0xbd97f4b3	-0.074197195
174	0xbd8b7473	-0.0680932
175	0x3be0dd86	0.006862345
176	0xbd4c2e2b	-0.049848717
177	0x3c1730e7	0.009227968
178	0x3d19d30b	0.037554782
179	0x3b053d65	0.0020330783
180	0xba965466	-0.0011469244
181	0x3d1361fa	0.03598211
182	0x3d896252	0.06708206
183	0x3de9d9ef	0.11418521
184	0xbcfb53de	-0.03067964
185	0xbd179099	-0.037003133
186	0x3b24fee1	0.0025176334
187	0x3e1d2ec1	0.15349866
188	0xbb0d9090	-0.0021601059
189	0x3e79f733	0.24410705
190	0xbd245836	-0.040123187
191	0xbc5552e7	-0.013020254
192	0x3d785e26	0.060636662
193	0x3d3642c1	0.044497255
194	0xbbda1f61	-0.0066565727
195	0xbc0a9a77	-0.008459679
196	0x3dbb0cb6	0.09133284
197	0x3d9ddeb5	0.077084936
198	0x3c8810c6	0.01660956
199	0xbbff743b	-0.007795838
200	0xbbc31293	-0.005953142
201	0x3e865443	0.26236162
202	0x3d7f2043	0.062286627
203	0x3e7d15d5	0.2471536
204	0xbdac415d	-0.084109046
205	0xbc85c0d6	-0.016327303
206	0xbdbae1d0	-0.091251016
207	0x3c44f33c	0.012020882
208	0xbd0a1efc	-0.033720955
209	0x3db52cfd	0.088464715
210	0xbd84f0b0	-0.0649122
211	0xbd75d291	-0.060015265
212	0xbd01ec97	-0.03171977
213	0xbcc7c100	-0.024384022
214	0x3d9b2363	0.07575109
215	0x3ed347f0	0.4126582
216	0xbdf9b9f7	-0.12193673
217	0x3e2ceee0	0.16887999
218	0xbd63b326	-0.05559077
219	0x3da6560e	0.081218824
220	0xbd135443	-0.03596903
221	0xbd27587a	-0.040855862
222	0xbd4a7324	-0.049426213
223	0xbcb97a98	-0.022641465
224	0xbda50cda	-0.08059092
225	0x3ccdd409	0.02512552
226	0xbc90b051	-0.0176622
227	0x3e250ea6	0.16118869
228	0x3e747e01	0.23876192
229	0xbba3b8fd	-0.0049964176
230	0x3e082127	0.13293897
231	0x3ce12261	0.027482213
232	0x3de5bd45	0.11217741
233	0xbd8772cb	-0.06613692
234	0x3e311572	0.17293337
235	0x3e0e15bc	0.13875479
236	0xbdf8ffcd	-0.12158165
237	0x3e280203	0.16407017
238	0xbcf9327b	-0.030419579
239	0x3d0a1abd	0.033716906
240	0x3de4d872	0.11174096
241	0xbd70fdf6	-0.058835946
242	0x3e2eba1f	0.17063187
243	0x3c009413	0.007847804
244	0xbe305776	-0.17220864
245	0xbcd34a0f	-0.02579215
246	0xbca0eec4	-0.019645102
247	0x3d8fc4d2	0.07019962
248	0xbd834449	-0.06409509
249	0x3eacc77a	0.3374594
250	0xbdb8ecbd	-0.09029529
251	0x3d14cb2c	0.036326572
252	0x3de92ff1	0.11386097
253	0x3e6b51ff	0.22980498
254	0xbdbfa139	-0.09356923
255	0xbdde1ddc	-0.10845539

fc3.bias f4 [20]
0	0xbc87e542	-0.01658881
1	0xbcb3bdcf	-0.021941094
2	0x3c8c06fb	0.017093172
3	0xbb13b644	-0.0022539059
4	0xbdbd932e	-0.09256588
5	0x3c84565c	0.01615446
6	0xbd563904	-0.052300468
7	0xbdd36833	-0.10322609
8	0xbd416a3c	-0.047220454
9	0xbcb3f4c0	-0.021967292
10	0xbb0f83db	-0.002189866
11	0x3cc40c82	0.023931745
12	0xbd0a9f18	-0.03384313
13	0x3cf11ba2	0.029432122
14	0x3d247a7d	0.040155876
15	0x3cb5a235	0.022172073
16	0xbd06a704	-0.032874122
17	0xbd0c68d3	-0.034279656
18	0xbca78891	-0.020450862
19	0x3d8bae4b	0.06820353
