models/crawler_critic.pth (torch_old, 814150 bytes, 5 tensors)

fcs1.weight f4 [512, 129]
000000 c4 79 d9 bd de 46 f2 bd 1a a5 bc be be 5a 0d bd
       -0.10618928 -0.11829923 -0.36844712 -0.034510367
000010 9b b0 92 bd f8 49 71 bd 90 8f 5c 38 6f 5b a1 3c
       -0.07162591 -0.058908433 5.258579e-05 0.01969692
000020 50 b2 27 bc ab 06 5d be 06 ee 83 3c a4 49 e8 3c
       -0.010235384 -0.21584575 0.01610471 0.028355427
000030 b2 83 12 3d e6 00 8b 3d d4 28 ba bc 5a 20 35 bd
       0.035770126 0.06787281 -0.022724546 -0.044220306
000040 cc 30 ec bc da dc d7 3c 8c 94 32 bd 78 28 39 3e
       -0.028831862 0.026350427 -0.043598697 0.18081844
000050 84 2a 10 bb 3a 16 8a 3d bb c5 50 3d a9 2e 64 3c
       -0.0021997998 0.06742521 0.05096982 0.01392714
000060 42 bc 4b bd 77 c5 2b bd e1 6b cc 3d 2e 47 9c bc
       -0.049740084 -0.041936364 0.09981514 -0.01907691
000070 c1 47 29 bd 0e f1 dd bc 15 c8 98 3c 19 dc 40 3d
       -0.041328195 -0.027092483 0.018650094 0.0470849
000080 a1 4f ea bc c9 c9 b6 bb f6 7f eb 3c 03 c1 78 bd
       -0.028602423 -0.005578254 0.02874754 -0.060730945
000090 7c 42 c6 3d 8a 8f 92 3c 31 be 9a bd 58 ac 94 3d
       0.0968065 0.01789071 -0.075558074 0.072594345
0000a0 81 1a 74 3d bf 65 27 3c 68 32 38 bc 16 4d 9e bc
       0.05959559 0.010217129 -0.011242487 -0.019323867
0000b0 b4 c6 d3 bb f1 e8 29 3d 2b fe 57 3a 9d 18 2f 3e
       -0.0064628962 0.041481916 0.0008239473 0.17099233
0000c0 01 78 6f 3d 79 1e 61 bd 0e 41 02 bc 13 9b 40 3d
       0.058464054 -0.0549607 -0.007950081 0.04702289
0000d0 73 80 fe 3d ab 9e 4a 3d f9 ac 6b 3d 55 05 52 bd
       0.124268435 0.049467724 0.057538006 -0.051274616
0000e0 de 55 d1 bd 44 04 ca bc 4d 8b 21 3c f4 d4 7d 3d
       -0.10221456 -0.024660237 0.009859872 0.061970666
0000f0 8b 47 90 3c a7 70 c4 3c ec 87 13 bc 97 45 77 3c
       0.01761224 0.023979498 -0.009004574 0.015092275
000100 1e 92 bc bc 9a 0c 19 3d db 62 04 3d 60 08 1b 3d
       -0.023018893 0.037365533 0.03232084 0.037849784
000110 1f 17 55 3b 42 4c 03 be 88 ea f6 bb ec cd 21 bc
       0.0032515002 -0.12822059 -0.0075352825 -0.009875756
000120 1d 83 c4 ba fc 96 86 3c d7 6a 4b bc 36 95 84 3d
       -0.0014992688 0.016429417 -0.012415609 0.06473772
000130 4b 4d 10 3d 27 ff 22 bd 80 2f 8a 3d f3 64 0e 3d
       0.035229962 -0.039794113 0.06747341 0.03476424
000140 dc db 05 3d 06 49 f8 bc 30 95 c1 bc fa ee cf 3a
       0.032680377 -0.030308258 -0.023630708 0.0015864067
000150 eb 2e bf bd e7 07 d2 bc 84 38 5d 3c 15 4c 24 3d
       -0.09335121 -0.025638534 0.013502244 0.04011162
000160 03 48 10 3c fa 4e 46 3d ba 02 8a bd 8c b5 0c 3c
       0.008806231 0.04841516 -0.06738801 0.008588206
000170 33 b5 8e 3d ba e2 02 bd a1 dc 1c 3d 14 25 73 bd
       0.06968155 -0.031954505 0.038296346 -0.059361532
000180 67 ad df bc 06 0f 27 bd ad 5f 31 3d 50 76 fc 3b
       -0.027304364 -0.04078581 0.043304134 0.0077045336
000190 f3 f9 bf 3b de d3 d3 3c a1 7c ee 3b e7 d9 ae 3d
       0.0058586537 0.025857862 0.0072780405 0.08537655
0001a0 d2 c0 4f bd e9 02 a4 ba e1 da b8 3d 85 5e c9 3b
       -0.050720997 -0.0012513074 0.09026123 0.006145301
0001b0 f7 64 97 bd 55 cd 4e 3d bb ae c3 bd 53 c2 b2 bd
       -0.073923044 0.05048879 -0.095548116 -0.08728471
0001c0 39 ae 82 bd e0 24 e6 bb 7c 28 fb bd 9f cb d4 3d
       -0.063808866 -0.007023439 -0.12263581 0.103904
0001d0 20 be cd bd a4 19 62 3d 04 eb ca 3d b7 53 b3 3c
       -0.10046029 0.055200234 0.09908107 0.021890504
0001e0 7c f9 2c 3d 91 d8 0a 3d 7b dc 2f 3c 09 81 01 3d
       0.042230114 0.03389794 0.010733719 0.0316172
0001f0 1f 6b e6 bb a8 92 a5 bd 3b 64 b7 bc f0 87 25 bd
       -0.007031813 -0.08084613 -0.02238666 -0.040412843
000200 4e 12 12 bc 3f 71 3a 3d 5b ac c8 bc ce 3f 52 3d
       -0.008915497 0.045518156 -0.024496248 0.05133038
000210 4a 83 7f 3d 83 4f 95 bd 1a 10 be bd b6 21 8d 3b
       0.062381066 -0.07290556 -0.09280415 0.004306997
000220 a4 cb 09 bc 6d 81 e6 3b 54 4e 02 3c 94 14 55 bc
       -0.008410368 0.0070344717 0.007953245 -0.0130053945
000230 6d f2 3d 3d 10 7e 53 3c 15 ec 46 bd dc 22 1e bd
       0.046373773 0.012908474 -0.04856499 -0.038607463
000240 5b 7c 30 bd 18 dd 17 bc b8 15 4f bc d3 9b 7f 3d
       -0.043087345 -0.009269021 -0.0126394555 0.062404465
000250 ed b5 8d 3d a3 96 8d 3c 70 c8 98 bd ba e6 c7 bc
       0.06919465 0.017283743 -0.074601054 -0.024402011
000260 11 1e 6e ba 2d f1 56 3d ae df 3b bc 1d 01 9e bc
       -0.000908346 0.052476097 -0.011466904 -0.01928764
000270 60 7d 25 bb f1 1c 28 bd 05 f0 22 bd 8a fe 04 bd
       -0.0025251731 -0.041043226 -0.03977968 -0.03246931
000280 8e cb 64 bb e7 8a 26 3d d6 fe 10 3d be f8 ac bb
       -0.0034911367 0.04065981 0.03539928 -0.005278676
000290 12 24 5d bd 79 c5 fa 3c 15 04 bb 3d b2 03 1d bd
       -0.053989477 0.03061174 0.09131638 -0.038333602
0002a0 5b 32 85 bd 1f f3 cf 3d c3 9b 36 3d 56 7a f5 3c
       -0.06503745 0.101537935 0.04458214 0.02996556
0002b0 dc 05 2a bd c2 fa b2 bc 79 0f c9 bc 21 ed cd 3c
       -0.041509494 -0.021848086 -0.02454351 0.025137486
0002c0 86 cb fd 3c 6c f0 58 3c 34 6d 00 be a9 dc 6c 3d
       0.030980837 0.013240915 -0.12541658 0.057827625
0002d0 36 f4 94 3d 2f e5 35 3c c8 db a9 bc 40 9c 34 bd
       0.07273142 0.011102005 -0.020734683 -0.044094324
0002e0 ee 5b 46 3d 4d db 6e bd fe c2 09 bd cb df 22 bd
       0.048427515 -0.05831461 -0.033633225 -0.039764207
0002f0 f6 6b 20 3d 89 9b 43 bd cd 16 9e bc dd 83 13 3d
       0.03916546 -0.04775575 -0.019297982 0.036014426
000300 31 3e 9f bd 13 8b 8f bc eb c1 44 3d d0 97 04 3d
       -0.07775534 -0.01752237 0.048036497 0.032371342
000310 ac 7f e1 3c 28 fa 19 bd c0 b5 c7 bc b4 b7 09 bc
       0.027526699 -0.037592083 -0.024378657 -0.008405615
000320 d4 13 ef bc be 36 25 3d e7 3c 82 bc 93 64 16 3d
       -0.02918426 0.04033541 -0.015898181 0.03671701
000330 ef bb 9b bd 98 80 19 3d 67 4a 12 3b b2 ae f2 3b
       -0.07604205 0.037476152 0.002232218 0.007406079
000340 5a e4 a1 bc f2 88 ee 3b 22 78 ea 3b 5c c4 90 bc
       -0.019762207 0.0072795087 0.007155434 -0.017671756
000350 b5 54 0c ba de 9f 7a bc 47 ba 01 3d 85 0e a5 3c
       -0.00053531985 -0.015296904 0.03167179 0.020148525
000360 6b 5d e4 bc e9 29 23 bd 38 dd 0e bd 4f b5 cb 3c
       -0.027876576 -0.03983489 -0.03487894 0.024866728
000370 8a cb 80 bd 1c 4c b1 bd bf 19 4d 3d fb fc 9d 3c
       -0.06288822 -0.08657095 0.05007338 0.01928567
000380 23 26 31 3c 5e d5 d0 bc 49 a6 c9 bc 20 8f 28 bd
       0.010812315 -0.025492366 -0.024615424 -0.04115212
000390 1a 99 eb bc cb 39 48 3d f8 86 66 3c 2f 46 4b 3d
       -0.028759528 0.04888324 0.014070265 0.04962748
0003a0 f8 b5 18 3b 00 b0 1a 3d a5 77 dd bd 48 0a 1c bd
       0.0023301821 0.037765503 -0.10813836 -0.038095742
0003b0 d6 6b 3e 3d 76 49 25 3c 7a cf 46 bc e9 68 2d bd
       0.04648956 0.010088315 -0.012134427 -0.04233638
0003c0 35 56 4c bc ab dc 8c 3c 40 40 aa 3b bc 4e 42 bd
       -0.012471725 0.017195066 0.0051956475 -0.04743837
0003d0 ec 0e 0a bd 01 29 9e bc c4 3f 39 3c b4 1e 04 3d
       -0.033705637 -0.019306662 0.011306707 0.032255843
0003e0 25 c1 01 bd bf 0d d1 3a d6 78 1c 3d 39 7c a5 bc
       -0.031678338 0.0015949531 0.038201176 -0.020200836
0003f0 70 24 ed 3c cb ae 9e bd fa a4 2d 3d 1d c3 32 3d
       0.028948039 -0.07748183 0.042393662 0.043643106

fcs1.bias f4 [512]
000000 b8 78 ba bc f5 cf a3 3d 17 04 8b 3c 14 fa c4 3d
       -0.022762641 0.07998649 0.016969724 0.09618011
000010 b2 1a 0f be 1a 89 96 3d 61 3c 96 3d dd 5c 08 3c
       -0.13975027 0.07350369 0.07335735 0.008322922
000020 a1 93 27 bd 5e 2b 9b 3c 9e a5 76 bd 1c bd 57 bd
       -0.040912274 0.018941578 -0.06021654 -0.052670583
000030 bd 7e c9 bd 97 d5 53 bd 57 cc fd 3c 20 3f ae bc
       -0.098386265 -0.051717367 0.030981226 -0.021270335
000040 32 f8 39 bd 69 f9 33 3c e2 b6 f9 3c 52 fa df 3c
       -0.045402713 0.010984757 0.030482713 0.027341042
000050 ca a8 48 bb db 60 1a bc e2 53 c6 bd 20 da ae bd
       -0.0030618184 -0.009422506 -0.09683968 -0.08537698
000060 82 98 6a 3d d3 fa 85 3d 69 f3 bd bb 03 a2 0f bb
       0.05727435 0.065419815 -0.005796839 -0.0021916635
000070 07 9b 75 bd 3f 97 f5 3d 3c d4 8d 3d c3 70 a6 3d
       -0.0599623 0.119917385 0.06925246 0.08126976
000080 f5 19 75 3b 62 e2 a0 3c 10 f1 bc 3b 54 02 f1 3d
       0.0037399505 0.019639198 0.0057660416 0.11768022
000090 96 3d 85 bd 1f f2 7b ba c4 c7 02 be ee 67 a0 3d
       -0.06505887 -0.0009610969 -0.12771517 0.07832323
0000a0 49 43 18 bd 55 14 54 bd 19 09 11 bd fd 9b 95 bd
       -0.037173543 -0.051777203 -0.035409067 -0.07305143
0000b0 e4 99 cc 3c 17 71 1b bb 9b c3 60 bd 0f 95 b5 bd
       0.024975725 -0.002371853 -0.054874044 -0.08866321
0000c0 22 0a 75 3d db 98 80 bd 04 a6 a5 bd f1 3c e4 3d
       0.059824117 -0.06279155 -0.080883056 0.11144436
0000d0 fa 96 9c 3d 41 28 34 3c 5e bb ee 3c 8b 7e 36 3d
       0.07645984 0.010995925 0.029142078 0.044554275
0000e0 ab 48 20 3d 8a 8a c0 3d 76 88 4e bc 8f 72 0e bd
       0.0391318 0.09401424 -0.012605777 -0.03477722
0000f0 3a 9a bf bd aa 90 12 3d a6 55 75 bd 90 a8 40 3d
       -0.09355588 0.035782494 -0.059896134 0.047035754
000100 a3 f8 db bd ab e0 c0 3d 4d 63 bd 3d 8a 3f 81 bd
       -0.10740783 0.09417852 0.09247456 -0.06310947
000110 c5 b3 0c 3d b6 d6 b0 bc 55 e5 4e 3d 20 7f 05 3e
       0.03435113 -0.021586757 0.050511677 0.13036776
000120 0c 42 5d bd 33 60 6e 3d fe 02 f1 bc e8 a3 de bc
       -0.054018065 0.05819721 -0.029420372 -0.027177766
000130 c7 86 98 3c 34 ca 16 3c c7 dd 4b 3d f6 1e 26 3d
       0.018618954 0.009203482 0.04977205 0.04055687
000140 05 84 fc 3c af 79 2c 3d 23 45 63 bd cf 27 be 3c
       0.03082467 0.042108234 -0.055485856 0.023212342
000150 6b 8a 65 bd 25 12 3c bd 90 57 9a bd 84 b6 a9 3d
       -0.05604021 -0.04591574 -0.075362325 0.08286765
000160 e2 02 9a 3d 64 1f 0e bc 40 0f 80 bd d2 92 8e 3d
       0.07520081 -0.008674476 -0.06252909 0.069615975
000170 dd ed fe 3d c2 ba 0e bd b1 6d 87 3d 0e 8d 51 3c
       0.124477126 -0.034846075 0.06612719 0.012789978
000180 31 f3 69 bc ee 0b 33 3c 76 e0 56 3d 71 2a 88 3d
       -0.014279173 0.010928137 0.052460156 0.0664872
000190 86 f3 cd ba ea 2b 0c bd 5f ba 42 3d 2c 72 2c bc
       -0.0015712834 -0.034221567 0.04754102 -0.010525268
0001a0 7d a5 51 bb 57 d9 b4 bd e4 b8 d9 3c 0b bc 60 bd
       -0.0031989508 -0.08830517 0.02657742 -0.05486683
0001b0 d2 c6 45 bd 22 56 64 bc 09 f1 49 bd 81 44 bc bd
       -0.048285313 -0.013936551 -0.049302135 -0.091927536
0001c0 e3 6a e2 3c 80 ae 5a 3d 7c 0e fb bc b8 7b 05 bd
       0.027638858 0.053389072 -0.030646555 -0.03258869
0001d0 95 28 a4 bc c1 26 45 bd e8 ec 6c bd 0e ea 42 3d
       -0.020038882 -0.04813266 -0.05784312 0.047586493
0001e0 ea ba a7 3c 1d 68 a3 bc 31 e3 78 bb 7c 43 15 3d
       0.02047487 -0.019947106 -0.0037977214 0.03644131
0001f0 5f 44 aa 3d d8 ed 02 be cd 69 74 bd 7c e9 71 bd
       0.08313822 -0.12786043 -0.059671212 -0.05906056
000200 94 37 88 bd 03 33 8d bd ed 0c 70 3d 54 40 33 3a
       -0.06651226 -0.06894495 0.058606077 0.0006837894
000210 76 aa 5e 3c ef d4 25 bd 08 e8 9c 3a 79 99 72 bd
       0.013590446 -0.040486272 0.0011971006 -0.059228394
000220 cc 18 b6 3d ab d9 92 bd c5 88 42 3d 78 d2 35 bd
       0.088914484 -0.07170423 0.047493715 -0.04439017
000230 c8 d8 76 3d a2 44 bf 3c 43 a9 09 3d bc 51 f8 bc
       0.060265332 0.023348156 0.033608686 -0.030312411
000240 c2 a9 1a 3d 9d 7f ca bd 0d ab 0d 3e 3e bc 82 3c
       0.03775955 -0.098876216 0.13834782 0.015958901
000250 87 7c 52 bd d4 b6 a8 bc 7f 3e 16 bb 68 59 90 3d
       -0.05138829 -0.020594992 -0.0022925434 0.07048303
000260 fb 5d 95 3d 59 53 94 3c 9f 1e ee bd 24 b8 9c 3d
       0.07293316 0.01810615 -0.11626934 0.076523095
000270 16 33 ba 3d 76 18 f9 3b d6 c0 6f bd a1 9a 12 3d
       0.09091775 0.007601793 -0.058533512 0.035791997
000280 d3 b0 a5 3d e9 4a b5 bd 74 8d c5 bd 20 72 59 bd
       0.08090367 -0.088521786 -0.09646121 -0.053087354
000290 31 16 be bd 71 f2 e5 3c cb 96 a7 3d 22 03 08 3d
       -0.092815764 0.028069707 0.08183058 0.033206113
0002a0 6c d5 9b bd 78 5f 03 bd 7b 44 c9 bd e9 47 92 3c
       -0.07609066 -0.032073468 -0.09827515 0.017856555
0002b0 23 73 18 bd ad dc a9 bd 8d b8 a2 3d 78 bd 38 3d
       -0.037219178 -0.08294044 0.079453565 0.045102566
0002c0 69 bb 3d 3d 9f 81 02 3c 6c 52 ac 3d a0 cc 3d 3d
       0.046321306 0.007965474 0.08414158 0.046337724
0002d0 21 5f 6d 3d 90 e0 07 3c ca 80 93 bd 63 78 f7 bd
       0.05795205 0.008293286 -0.07202299 -0.12083509
0002e0 66 73 42 3d 6a e0 52 3d ce 4f 4d b9 71 ec 0b 3e
       0.047473334 0.05148355 -0.00019580053 0.13664414
0002f0 1f 0d a7 bd 56 0c ad 3d dc 05 09 bd 5d 00 c4 bd
       -0.081567995 0.084496185 -0.033452854 -0.09570382
000300 4a ef 1d 3c 73 9c bc bd 2e 63 b2 3d 16 73 ac bb
       0.0096395705 -0.09209528 0.08710323 -0.0052627428
000310 4b 35 fb bc 32 21 a3 3c c0 27 cf 3d 30 5a d5 3c
       -0.03066506 0.01991329 0.101150036 0.026043981
000320 03 0b cf bd 2d 03 4f 3d 22 12 c1 bd ab 93 37 bd
       -0.10109522 0.050540138 -0.09427287 -0.04481856
000330 95 9d e0 3d 96 6e 84 bd 48 3c 0b 3b d7 d3 9a 3d
       0.109675564 -0.06466405 0.0021245647 0.075599365
000340 13 5a 36 3d c7 7b c0 3c ff bf 8e 3d a7 c9 86 3c
       0.044519495 0.023496522 0.06970214 0.016453577
000350 f4 b3 1e 3d 0d 4f b8 3d 95 8a a2 3d cf 5d d8 3c
       0.038745835 0.08999453 0.07936589 0.026411919
000360 60 af 00 3c 79 ab 11 3d 36 4c 38 bc 1c c7 6a bc
       0.007854313 0.03556392 -0.011248639 -0.014329698
000370 31 76 c8 3d cd 28 3d 3c a2 c7 09 3c d8 c4 9b 3d
       0.09788168 0.011545372 0.008409413 0.07605904
000380 d5 29 e4 3d be 38 a0 3d 44 07 75 3d df 05 58 bd
       0.11140791 0.07823323 0.059821382 -0.052739974
000390 5d 5b c6 3d ed 94 34 3d a0 50 75 3d 24 86 0f bd
       0.09685395 0.04408734 0.059891343 -0.035040036
0003a0 48 98 ad bd c6 35 0f bd b8 c2 60 bd 94 65 e3 b9
       -0.08476311 -0.03496339 -0.0548732 -0.00043372496
0003b0 b5 ec 5a 3d 27 30 83 bc 28 ba 7f bd ce 57 8f 3d
       0.053448398 -0.016014172 -0.06243339 0.06999169
0003c0 9a 03 1c bd d5 0c 1a 3d a9 77 d5 bd d3 e6 cd 3d
       -0.038089372 0.037609894 -0.10423214 0.10053792
0003d0 64 35 71 3d 5e 76 01 3e 1a 88 bd bc b3 19 3e 3d
       0.058888808 0.1264281 -0.023136187 0.046411227
0003e0 6d a2 1e bc cf a1 89 3d be 9a 6e 3d 9c 35 31 3d
       -0.00968228 0.06720316 0.058253042 0.043264017
0003f0 44 2d 5a ba 3a e7 7e bd 24 b8 59 bd 27 fe 43 3d
       -0.0008322785 -0.062232234 -0.053154126 0.0478498

fc2.weight f4 [256, 532]
000000 74 a3 c4 bc ad 41 31 bc 87 6a 24 3e bf 7f 0f be
       -0.024003722 -0.010818881 0.16056262 -0.14013575
000010 33 dc 0f be c6 67 3e 3d c5 f7 91 bd aa fe 21 bd
       -0.14048843 0.046485685 -0.071273364 -0.039549507
000020 f4 22 04 3d a0 bf 3c 3d 0c b2 b8 3d 03 a5 51 3d
       0.032259896 0.046081185 0.09018335 0.051182758
000030 c1 7b d3 3c 7e 12 31 bd 4a 07 90 be 9e e2 f5 bc
       0.025815846 -0.043230526 -0.2813056 -0.030015286
000040 2c 7b 24 bd b7 be 28 3d 0f ca ce 3d f7 2b 28 3d
       -0.04015653 0.041197505 0.10097133 0.041057553
000050 93 16 77 3d d9 39 34 3d 06 6c 54 3d 9b 72 1d bd
       0.060324263 0.04400048 0.05186083 -0.038439374
000060 b5 2d ef 3d 5f c4 d8 bc 89 6b ae 3c 3c d5 92 3d
       0.1167864 -0.026460825 0.021291511 0.071695775
000070 86 41 77 bd 35 72 30 3d 56 cd c9 bd d2 7f 29 bd
       -0.060365222 0.043077666 -0.09853618 -0.041381665
000080 27 43 c0 bc ac 24 ce bc 73 fd c1 bd b9 5a a4 3d
       -0.02346952 -0.02516397 -0.0947217 0.080251165
000090 6d ad 95 bc fc e0 5c 3d 20 18 a4 3c 25 3b 00 bd
       -0.018271172 0.0539255 0.020031035 -0.031306405
0000a0 92 2b ac 3c 0a 18 1a bd 60 f5 3c bd db 13 31 bb
       0.02101687 -0.03762058 -0.046132445 -0.0027019891
0000b0 ab 5b c0 bd 78 3d 2d 3d 34 2c b1 bc e9 e9 be 3d
       -0.09392484 0.04229495 -0.021627523 0.093219586
0000c0 fc 18 65 bd 25 e9 77 bb 96 f4 ea 3c f7 ce ee 3c
       -0.05593203 -0.0037828174 0.02868108 0.029151423
0000d0 6c 4b 91 3c a4 7f cd 3d 16 a7 71 bc 27 d8 ad bd
       0.01773616 0.10034111 -0.014749309 -0.084884934
0000e0 23 05 6d bb 9c 82 5b bc 42 5c 56 3d 9a fd 47 3d
       -0.0036166392 -0.013397839 0.052334078 0.048825838
0000f0 1c 64 90 3d 89 1d 1d bd 56 21 0a bc cb 94 d4 bd
       0.07050344 -0.038358245 -0.0084307995 -0.103799425
000100 a6 62 31 bd f8 13 ee bc 58 47 59 3d 90 d5 67 3e
       -0.04330697 -0.029062256 0.053046554 0.22640061
000110 13 72 77 bd f9 15 3b 3e ac 71 60 3d 1d 5c bf bc
       -0.060411524 0.182701 0.054795906 -0.023359353
000120 05 38 b9 3c 30 db b3 3d 4c 35 a1 bd 01 18 33 be
       0.02260972 0.08782041 -0.07871494 -0.17489626
000130 52 8b bf 3d c9 24 d0 bc 85 ca 85 3d 69 ce fb bd
       0.09352745 -0.025408166 0.06532768 -0.12295229
000140 58 7a d8 bd aa d6 10 3d 1a f0 0a 3e 46 ee a3 3d
       -0.1057021 0.03536097 0.13568154 0.080044314
000150 2e 13 89 bd 99 44 67 3d 67 4d bb 3d 41 5b 58 bc
       -0.06693111 0.056461904 0.09145623 -0.01320535
000160 ea 16 c0 bc 91 ce 39 bd 34 81 d2 bd 31 1f 1e 3d
       -0.023448426 -0.045363013 -0.1027855 0.038603965
000170 18 5c 62 bc a3 2c 30 3d a4 79 a6 bd 22 d0 2f 3e
       -0.013815902 0.04301132 -0.0812867 0.1716924
000180 c0 58 5b 3c 3b 5d 14 be af 8f b4 be 24 fd 72 bd
       0.013387859 -0.1448869 -0.35265872 -0.059323445
000190 f3 d8 2f bd d9 8a 88 3d 96 35 59 3d 32 7e 40 bd
       -0.04293151 0.06667108 0.05302962 -0.04699535
0001a0 ff a9 37 bb 84 f9 c0 bd 73 17 f3 bc 1a 02 58 bd
       -0.002802491 -0.09422591 -0.029674267 -0.05273638
0001b0 91 f7 6b 3d 62 a7 20 bc 38 ea 98 bc cc df 27 3e
       0.057609145 -0.009805532 -0.018666372 0.16393965
0001c0 0e e2 80 bc 52 35 05 bd 5c b5 e1 ba aa 9b e9 3b
       -0.015732791 -0.032521553 -0.0017220187 0.0071291523
0001d0 c4 6a 44 bd 80 5a 0a 3d b2 9a cd 3d 78 d7 2c be
       -0.047953382 0.033777714 0.100392714 -0.1687907
0001e0 5f 8a 3c 3d 6b 17 7c 3d 26 df 91 bc b6 73 e5 3d
       0.0460304 0.06154577 -0.0178066 0.11203711
0001f0 89 31 e1 bc 11 76 a5 bc 13 52 0b bc 0a fd 10 be
       -0.02748944 -0.0201979 -0.008503455 -0.14159027
000200 48 85 0d 3d 43 6f 0f bd a6 43 e7 bd 8a 9a 8c bc
       0.034550935 -0.035018217 -0.112922 -0.017163534
000210 6f 39 52 bd cf dd 11 bc 94 57 04 be 61 94 55 bd
       -0.051324304 -0.008902981 -0.12924033 -0.05214346
000220 17 bf 22 be e7 cf ac bd 01 d0 bb 3d bf 20 aa bb
       -0.15893207 -0.08438092 0.09170533 -0.005191892
000230 43 23 de bd 1c ee 27 bd 03 89 29 3d 9b 6f 81 bc
       -0.108465694 -0.040998563 0.04139043 -0.015800288
000240 19 87 ca 3d c7 87 0e 3e 12 3c c2 bc 9a 77 42 bd
       0.09889049 0.13918982 -0.023710284 -0.047477342
000250 90 66 1a be 38 73 12 3d 0d 98 c4 bd 5c 40 e4 3c
       -0.15078187 0.035754412 -0.09599314 0.02786272
000260 b5 ae be 3c c5 5b b8 3d 06 9e 79 bd 4c 88 85 3d
       0.023276666 0.09001879 -0.06094172 0.06520137
000270 2b c0 06 bd 80 91 7d 3c 27 95 a6 bd e4 d9 27 bd
       -0.03289811 0.015476584 -0.08133917 -0.04097928
000280 63 97 e0 bd d5 44 66 be 4b 83 b9 bc 13 8d 87 3d
       -0.10966375 -0.22487195 -0.022645613 0.06618705
000290 a7 7f b2 bc dc b5 74 bd b0 dc 15 be 74 19 0a bb
       -0.021789385 -0.059743747 -0.14634967 -0.00210723
0002a0 d7 eb 21 bd 33 66 9c bd 23 b6 86 3c 4e 39 d2 bd
       -0.039531555 -0.076366805 0.016444271 -0.10264836
0002b0 b6 d1 0c 3d 5b ab 00 3d 75 d2 9b be 90 e3 3a bd
       0.034379683 0.031413417 -0.30434003 -0.045627177
0002c0 4c 5f 07 bd 87 23 12 be dc 14 e1 3c 9a b1 7b 3d
       -0.033049867 -0.14271365 0.027475767 0.06144867
0002d0 fe 76 ae bd e1 c3 05 3e ff 9e c6 3c 4b 1e f3 3a
       -0.0851879 0.13063003 0.024245737 0.0018548457
0002e0 8d 56 ed bd de e8 19 3e e3 12 87 bd d7 6c 87 3d
       -0.11588774 0.15030238 -0.06595399 0.066125564
0002f0 94 d7 16 bd 8d 87 d5 bd c9 d7 70 bb 3d 73 5e bb
       -0.036826685 -0.10426245 -0.0036749712 -0.00339432
000300 6c 81 a8 bb 79 19 92 3d e5 82 60 bd 69 31 c0 3d
       -0.0051423814 0.07133765 -0.05481233 0.09384424
000310 dd 0c 77 3d f5 e0 c7 bb bc 69 84 bd ba d4 75 3c
       0.060315 -0.006099815 -0.0646548 0.015004331
000320 06 3e 98 bb 3b d4 98 bd 68 2f bf bd eb ba ad bd
       -0.0046460656 -0.07462355 -0.09335214 -0.084829174
000330 71 a0 55 bd 6d 3d 2e bd 22 2e a1 3c e2 d8 9e bd
       -0.052154962 -0.04253905 0.019675318 -0.07756211
000340 f8 16 ce bd c1 11 73 3d 74 be ae bd 9e 26 ab bd
       -0.10062975 0.059343103 -0.0853242 -0.08356975
000350 5e db f6 bd 92 3e 60 3c 04 f8 c3 3d 44 ef aa 3c
       -0.1205356 0.013686793 0.095687896 0.020866044
000360 4c 5b bb bd ea a4 86 bc 3d 96 00 bb fa 81 b2 3d
       -0.09148273 -0.016436059 -0.00196208 0.08716197
000370 4f 84 50 bd fe 01 a4 bc ed 9b e9 b9 e5 6a 83 3b
       -0.05090743 -0.020020481 -0.00044557397 0.0040105456
000380 c8 e5 7f 3c 6c e2 a6 bd 38 f8 bf 3d 7e ea 9b 3c
       0.015618749 -0.08148655 0.09373516 0.019032713
000390 cd 8b d2 bd 62 8e 67 bb 4e 8d 92 3a 61 43 cf bd
       -0.10280571 -0.003533267 0.0011181028 -0.101202734
0003a0 b9 9b 30 bd ed 48 98 3d fe 1f 26 bd 93 cd 27 3b
       -0.04311726 0.074357845 -0.040557854 0.002560471
0003b0 37 0f c0 bc fe 1f ca bd 25 ff 7f bd c6 84 dc bc
       -0.023444755 -0.09869383 -0.062499184 -0.02691878
0003c0 30 1c e7 bc 7c 0e e7 bc 03 b6 75 bc fa 35 55 3d
       -0.028211683 -0.028205149 -0.014997008 0.05205343
0003d0 ad 66 d2 bb 50 0c 8d bd 8f ea a2 3d aa ab 64 bd
       -0.0064209313 -0.06887114 0.07954895 -0.055827774
0003e0 d2 a4 c4 3d ba 82 86 bd d9 ea 5e 3d 66 68 00 be
       0.096017495 -0.06567903 0.054423187 -0.12539825
0003f0 a2 9f 33 ba fa 10 c6 bd 52 a6 c1 bc bd ad fc bd
       -0.0006852095 -0.09671207 -0.023638878 -0.123378254

fc2.bias f4 [256]
000000 30 83 91 3b 41 84 8d 3d 55 91 97 bc 5a dc f1 bb
       0.0044406876 0.06909991 -0.018501917 -0.0073810043
000010 f2 bb 7f 3d 25 7b 47 3c 22 03 96 3d d2 5d 88 3d
       0.062435098 0.012175356 0.07324816 0.0665852
000020 35 f8 b4 bd 67 9f 8f 3d 44 6d 9f 3b b7 bf 83 3d
       -0.08836404 0.070128255 0.0048653204 0.06433051
000030 9e 76 46 3d 41 47 4b 3d 14 ea f4 3c cd cc 9a 3d
       0.048452966 0.0496285 0.029896773 0.07558594
000040 4b e5 7e ba 01 d1 43 3d 2e 69 41 bd 6f 34 58 bd
       -0.00097234984 0.047806744 -0.047219448 -0.05278438
000050 db 19 f1 3d a5 71 ac 3c 93 43 ad 3d 2d b3 12 3e
       0.1177251 0.021050284 0.084601544 0.14326163
000060 77 3d e1 3d 26 24 53 3b 5a 7c 99 3d a3 e1 13 3e
       0.109980516 0.003221759 0.07494421 0.14441542
000070 7e 38 e3 3c 11 c3 ea 3d a5 fc 21 3c 6a 4c 20 3d
       0.027736899 0.11462987 0.009886895 0.039135374
000080 07 14 ff 3b fe 76 c5 3c 08 94 b1 3d de 74 40 3d
       0.00778437 0.024104591 0.08670813 0.046986453
000090 6b b1 81 3d e7 e3 43 3d 2d 9b b6 3d e6 56 8e 3d
       0.06332668 0.047824766 0.08916316 0.06950168
0000a0 d6 50 b9 3c e9 7d 8f bc 07 58 80 bd c6 05 de 3b
       0.022621553 -0.017516093 -0.0626679 0.0067755906
0000b0 f0 32 88 3c fc fa 96 3d 81 8b 38 3e f2 72 0b 39
       0.016625851 0.0737209 0.18021967 0.00013298893
0000c0 cc e1 0f 3e 8f c2 32 3d 2c e5 b8 3d b8 c8 98 bd
       0.14050978 0.043642577 0.09028086 -0.07460159
0000d0 ca 9c 63 3d c6 00 00 3e 43 69 14 3e 18 da 82 3d
       0.055569448 0.12500295 0.14493279 0.06389254
0000e0 0c c5 28 3d 00 65 94 3d e0 0b f6 3d 39 56 f9 bb
       0.041203544 0.07245827 0.12013984 -0.0076091555
0000f0 d2 0e 1a bd f1 c9 ac 3d ce 04 97 3d 8d 9a 9b bc
       -0.03761179 0.08436955 0.07373963 -0.018994594
000100 aa e2 3a 3c c5 fd 1d 3d 21 ca e1 3d 24 43 8e 3d
       0.01140658 0.03857209 0.11024881 0.069464
000110 b0 f6 b7 3d 47 60 98 bc 36 ee 11 3d 37 b0 a1 3c
       0.08982599 -0.018600596 0.035627566 0.019737346
000120 3d 7b 81 3d db 95 c9 bb 14 f9 05 3e 57 fd b2 3d
       0.06322334 -0.0061518974 0.13083297 0.08739727
000130 73 8b a4 3c 97 dc 43 3d ca 59 bd 3c 65 60 ca 3c
       0.020086026 0.047817793 0.023114104 0.024704168
000140 83 e2 19 3d 06 67 5d bd 8c 13 88 3d 35 fb b6 3d
       0.037569534 -0.05405333 0.06644353 0.08934633
000150 02 d6 b3 3b 8c a9 6d 3d 8f 9d 2b 3d 51 a2 12 bd
       0.005488158 0.05802302 0.041898306 -0.03579933
000160 e1 a6 c5 3d 3e 69 39 bd f1 94 c9 3c 07 29 b0 3d
       0.0965097 -0.045266382 0.024607154 0.08601575
000170 60 de 3e 3d 1d f5 2b 3d db 85 a5 3c 1c bd b6 3c
       0.046598792 0.041981805 0.020205429 0.022306971
000180 f7 2c 6a bd f1 6c dc 3c 09 c8 c6 3c e9 1a 26 3d
       -0.057171788 0.026907416 0.024265306 0.040553007
000190 5f f3 de 3c 96 b6 59 bc d1 58 59 3d 75 c8 7e 3d
       0.027215658 -0.013288161 0.053063218 0.06220289
0001a0 be 8d 7f 3d d1 29 36 bd 3e 97 5b 3d 56 a9 27 3d
       0.062391035 -0.044473473 0.053611033 0.040932976
0001b0 cd 40 b1 3d ca b0 fc 3d 7f 26 e5 3b 07 c2 75 3d
       0.08654938 0.12338407 0.0069931145 0.059999492
0001c0 fd b5 70 3c 31 9b 54 3d da 01 21 3d 28 f2 94 bd
       0.014691827 0.051905815 0.039308406 -0.0727275
0001d0 66 11 7e 3d 4d d3 4d 3d 7a e6 d7 3c 18 f6 b2 3d
       0.06202831 0.05025034 0.026355017 0.08738345
0001e0 5f 30 a2 bd c2 0a 8d bb 33 28 d4 3d cd 0f 74 3d
       -0.07919382 -0.004304261 0.1035923 0.05958538
0001f0 b3 4a e7 bc 2c e9 f2 3c d9 8b a1 3d d6 71 b5 bc
       -0.028233862 0.0296522 0.07888002 -0.022149008
000200 54 fc 2f bb 50 54 a9 3d eb 41 05 3e 1b df 0b 3e
       -0.002685328 0.082680345 0.13013427 0.13659327
000210 f8 81 c7 3d d6 e2 68 bd d3 66 e6 3c 3f 83 6a 3d
       0.097415864 -0.056856953 0.028125202 0.057254072
000220 20 a3 05 3e 26 89 1d 3d 28 a6 4a bd 33 0a 11 3e
       0.13050508 0.038460873 -0.049474865 0.14164047
000230 ab 2c 22 3d 92 0f e1 bd 86 98 28 bd 0c 43 c3 3d
       0.03959338 -0.10989298 -0.041161083 0.095342726
000240 d7 a5 a1 3c 29 04 b6 3d 5a 79 af 3d ad 16 31 3e
       0.019732399 0.08887512 0.08568068 0.17293806
000250 a9 7f 76 bd e5 4d 27 3e 36 17 7d 3d 7c ca 2f 3e
       -0.06018034 0.16338308 0.061789714 0.17167085
000260 2e 8b 0f 3e d4 e5 03 3e 14 e0 b8 bc c4 86 47 3c
       0.14017937 0.12880641 -0.022567786 0.012178127
000270 a3 e1 4b 3d ff 4f 71 3d ad 1f 62 3d ad 74 a1 3c
       0.04977573 0.05891418 0.05520599 0.019708956
000280 31 ff 05 bc 42 8e 87 bc 27 e4 47 3d f8 75 c3 3d
       -0.008178518 -0.016547326 0.048801567 0.09543985
000290 fd 37 82 bc 32 ad bf 3a f9 f2 82 3d b1 9b c0 3d
       -0.015895838 0.001462376 0.063939996 0.09404696
0002a0 c4 68 10 3e a4 a2 7a 3d 75 d5 27 3e ae 20 76 3d
       0.14102465 0.061190262 0.16390021 0.06008976
0002b0 ad a2 42 3d 6b 36 c3 bb d3 34 2e 3d 1f 12 6b 3d
       0.04751842 -0.005957415 0.042530846 0.05739033
0002c0 3e 43 53 3d 19 66 73 3d b1 be e0 3d 37 57 63 3d
       0.0515778 0.05942354 0.109738715 0.055503096
0002d0 9e df 83 3c e5 0e 14 3e 23 6a 20 3d 61 90 8a 3d
       0.01609784 0.14458807 0.03916372 0.06765819
0002e0 2e 3d 8a 3d 80 d9 5c 3d 2c 1b 96 bc 71 50 ba 3d
       0.0674995 0.05391836 -0.018323503 0.09097374
0002f0 59 ec f8 3d 67 5b 06 3e 83 72 8d 3d ed f2 5f bc
       0.12154455 0.13120805 0.06906607 -0.013668758
000300 d6 a0 bb 3d 62 7c ab 3c 2c f3 a5 3d 83 77 1b 3d
       0.091615364 0.020933334 0.08103022 0.037955772
000310 3f 5f 3c 3d 56 60 b5 3d 7f 71 01 3e 31 54 98 3d
       0.04598927 0.08856265 0.12640952 0.07437933
000320 13 48 cb bd 49 a2 32 3d f7 09 c9 3d 72 e0 e8 3c
       -0.099258564 0.0436118 0.09816354 0.028427336
000330 ba 22 75 3d 0f 50 e0 3d 2b 5e 92 3d 28 d8 61 3d
       0.05984757 0.1095277 0.07146867 0.055137783
000340 2b 67 95 3d 8e c0 08 39 dd 60 a4 3c 07 a4 a6 bc
       0.07295068 0.00013041703 0.02006572 -0.020341886
000350 56 d8 e8 3d 9c dd b1 3d 5f 47 c7 3c 36 95 cb 3c
       0.11369388 0.08684847 0.024326025 0.024851423
000360 07 94 da 3c 66 75 33 bb 5d bd f5 3c 32 6f 4b bd
       0.026681913 -0.0027383207 0.029997522 -0.04966659
000370 30 9a 5f 3d 75 d8 b8 bc f0 74 b8 3d ca fa 8c 3c
       0.054590404 -0.022564152 0.09006679 0.01720943
000380 d4 7e 8f 3d f4 db 5f 3c 58 58 6d bd 38 f4 56 3c
       0.070066124 0.013663281 -0.05794558 0.01311975
000390 24 12 d6 3d 88 57 a4 3d 78 c6 c4 3b 67 c7 c1 3d
       0.10452679 0.08024508 0.0060051046 0.09461861
0003a0 9e 40 1a 3d 21 0a b3 3c 48 59 52 3e 77 56 0d 3c
       0.03765928 0.021855416 0.2054187 0.008626572
0003b0 bc a4 df 3d c9 d1 bc 3d cd b0 18 3d bd ac e8 3d
       0.109200925 0.09219701 0.037277985 0.11361072
0003c0 08 be 22 3c 65 c3 0d 3d ce bd 07 3e b6 82 c6 3c
       0.009933002 0.03461017 0.13255998 0.02423225
0003d0 ad 47 dd 3d a2 87 a5 3d 99 df ce 3b 19 f7 4c 3e
       0.10804687 0.080825105 0.006313276 0.20016135
0003e0 bf ff 53 3d c1 d1 6d 3d 26 38 04 3e 8d 44 84 3d
       0.05175757 0.058061365 0.12912044 0.064583875
0003f0 58 c7 30 3d 0a 32 ee 3d 8f 77 8d bd 36 99 81 3d
       0.04315886 0.11630638 -0.069075696 0.06328051

fc3.weight f4 [1, 256]
000000 3d 4b 03 bf 00 11 4f 3e bb 75 e1 be 46 cf 26 bf
       -0.5128668 0.20221329 -0.44035134 -0.65160024
000010 2e fc 49 3e c8 20 48 3e 80 ce 57 3e fc 39 b5 3d
       0.19725105 0.19543755 0.21074867 0.0884895
000020 f2 c6 be be 4d 50 6f 3e 3d f4 1f bf 41 98 c9 3d
       -0.37261158 0.23370476 -0.62482053 0.09843493
000030 16 70 8e 3e 05 22 0b 3f 93 bf 14 bf 8e 34 0c 3e
       0.2781989 0.54348785 -0.5810482 0.13691923
000040 91 03 e5 be 77 0f aa 3d 4e e0 7b bf db 2a 10 bf
       -0.44729283 0.08303731 -0.98389137 -0.5631539
000050 88 9b cc 3d ac 1f 93 be 93 3e 1b 3e 86 af 9a 3d
       0.09990603 -0.287351 0.15160589 0.0755301
000060 b2 5a a0 3e 46 f6 07 bf c9 fd 95 3e c7 81 f1 3d
       0.31319195 -0.5311016 0.29295185 0.11792331
000070 1a e0 86 be 5a 77 21 3e 1f 15 19 3a f1 ac 41 bf
       -0.2634285 0.15768185 0.0005839634 -0.7565451
000080 44 96 05 bf a9 df 0e bf 6b 7b b3 3d 5e c4 8b 3e
       -0.5218241 -0.5581003 0.087637745 0.27298254
000090 3a 6a 93 3e 57 7b dc 3d d5 cf 91 3e b0 ad 01 3e
       0.28791982 0.10765713 0.28478876 0.12663913
0000a0 19 8e 99 be ce b7 1e bf 7c 0c 23 be e1 cb ba 3e
       -0.29991224 -0.61999214 -0.15922731 0.36483672
0000b0 21 17 b6 bc d5 b2 23 3e ba 1c 8a 3d b9 2b f7 3e
       -0.022227826 0.15986188 0.067437604 0.48275545
0000c0 f7 75 13 3e 54 e8 35 3e dd ac aa 3e 57 fb b6 be
       0.14400469 0.17764407 0.3333501 -0.35738632
0000d0 13 6d 3b 3e 6a 87 b2 3d cc 2c b4 3d f3 92 b2 3e
       0.18303327 0.087172344 0.08797607 0.34877738
0000e0 25 9f 50 3e a5 dd 76 3e 65 86 44 3e f6 e9 70 be
       0.20373209 0.24107988 0.19191892 -0.23526749
0000f0 e7 ba 46 be 6f f7 c6 3d 3c ce 71 3e d2 56 86 be
       -0.19407235 0.09715163 0.23613828 -0.26238114
000100 74 bd 95 3e 29 be 17 3e 32 e9 ee 3d cf 47 88 3e
       0.29246104 0.14818634 0.11665572 0.26617286
000110 dc 22 10 3e c0 d9 87 be 8b 0f a6 3e ea d4 bc 3e
       0.14075798 -0.26533318 0.32433733 0.3688119
000120 de fb 8b 3e ef fc fa be ae 9b 30 3e 83 2a db 3d
       0.27340597 -0.49021098 0.17246887 0.10701468
000130 00 f8 ca 3e 8e 04 c6 3e d7 69 9c 3e e8 de 0e bf
       0.39642334 0.3867535 0.305495 -0.5580888
000140 7a 86 12 3e 0a 3c 93 be 4c 15 45 3e 63 57 37 3e
       0.14309111 -0.28756744 0.19246405 0.17904429
000150 5f a4 01 3f cc 6d f0 3d 54 c6 a0 3e ef 60 e7 be
       0.50641435 0.11739692 0.31401312 -0.45191142
000160 4b 30 dd 3d 46 29 e5 be 51 71 9c 3e 4a a2 33 3e
       0.10800227 -0.44758052 0.30555204 0.17542377
000170 78 69 d8 3d a5 cb 17 3e 51 a8 20 bf f0 3d ff be
       0.105669916 0.14823778 -0.6275683 -0.49851942
000180 fc 92 9b be 4c ed b8 be ab ae 2f 3e 96 33 d9 be
       -0.30385578 -0.36118543 0.17156474 -0.4242217
000190 46 25 8e 3e 6f 50 60 b9 de a0 52 3e 48 f1 b7 3e
       0.27762812 -0.00021392269 0.20569178 0.3592627
0001a0 d8 7b 52 3e 2f 34 00 bf 22 f0 03 3e 92 31 04 3e
       0.20555055 -0.50079626 0.12884572 0.12909535
0001b0 8d 90 19 3e 33 d9 aa 3d 5b ff 1c bf 55 99 41 3e
       0.14996548 0.08342209 -0.6132714 0.18906148
0001c0 86 a3 51 be 33 29 42 3e e6 25 ff 3d d6 4e f1 be
       -0.20472535 0.18961029 0.124584004 -0.4713046
0001d0 e6 43 98 3e fa 8c 06 3e aa 53 a6 3e b8 68 af 3e
       0.29739302 0.13139716 0.32485706 0.34259582
0001e0 46 5e 99 be e1 10 aa be f0 cb c5 3d 95 28 df 3d
       -0.29954737 -0.33216003 0.096580386 0.10896412
0001f0 1c c4 2d bf 87 e4 8c 3e 89 3e 50 3e 70 c5 9a be
       -0.67877364 0.27518103 0.20336355 -0.30228758
000200 57 92 dc be 9c b9 87 3e 0a ba 2c 3e 29 01 cf 3d
       -0.43080398 0.26508796 0.16867843 0.10107643
000210 01 77 db 3d c3 9a b9 be f2 bc 4f bf 77 54 9b 3e
       0.107160576 -0.36250886 -0.8114768 0.3033788
000220 79 0b 08 3e a9 49 57 3e 8f af 04 bf e2 73 00 3e
       0.13285626 0.21024193 -0.5183038 0.12544206
000230 72 e8 27 3e 8e a9 aa be a9 13 9f be a1 3d d2 3d
       0.16397265 -0.33332485 -0.31069687 0.10265661
000240 bc 7b 9f 3e 7c a3 1b 3e d5 77 06 3e a9 c9 9f 3d
       0.3114909 0.15199083 0.1313165 0.078021355
000250 ea 7d e5 be 37 11 2b 3e f0 76 7a 3e 89 08 12 3e
       -0.44822627 0.16705786 0.24459434 0.14261068
000260 fb d1 f5 3d ff 20 a7 3e 9d 14 c5 3e 97 06 37 bf
       0.12002941 0.32642362 0.3849229 -0.7149443
000270 68 10 0c 3f cf d3 14 3e 17 4d 20 3e 93 e0 55 bf
       0.54712534 0.14533924 0.15654407 -0.835458
000280 ef a0 1f bf b3 00 36 bf 5d 26 9c 3e b9 16 3d 3e
       -0.6235494 -0.71094817 0.3049802 0.184657
000290 9e 13 80 be 82 2b 8c 37 7c 8a 3f 3e ed 4f 13 3e
       -0.25014967 1.670956e-05 0.18705171 0.14385958
0002a0 b6 ad d1 3d 5e 82 2f 3e b2 1a c5 3d b1 9f ae 3d
       0.10238211 0.17139575 0.09624232 0.085265525
0002b0 3d 40 41 3e 0e a2 90 be 96 0f 9d 3d f0 e7 5a 3e
       0.18872161 -0.28248638 0.076689884 0.2137754
0002c0 96 07 bc 3e d7 18 a7 3e 77 6d 41 3e f5 d9 ad 3e
       0.36724538 0.3263614 0.18889414 0.3395535
0002d0 4b bf 18 bf 3c 0c c8 3d 4d 17 20 3e 8d 7b 01 3e
       -0.5966689 0.097679585 0.15633889 0.12644787
0002e0 31 11 c8 3e 54 11 99 3e c6 1a 66 bf 06 46 6e 3e
       0.39075616 0.29896033 -0.89884603 0.232689
0002f0 65 df d5 3d 7d db c8 3d a6 fe 86 3e ed 98 07 bf
       0.10443 0.09807489 0.26366156 -0.5296772
000300 76 60 da 3d d4 e3 91 3e 2e 3e b8 3d 43 30 39 3e
       0.1066293 0.28494132 0.08996235 0.18084817
000310 02 15 37 3e 6d 63 ce 3d 15 ba a2 3d dc 2f 19 3e
       0.17879108 0.10077558 0.079456486 0.14959663
000320 14 f1 49 be 84 7f 89 3e da 55 c5 3d ce 32 eb 3e
       -0.1972087 0.268551 0.096355155 0.45937198
000330 4e 7c d7 3d 45 e0 f8 3d 4d 6e 84 3e 39 c8 91 bf
       0.10521756 0.12152151 0.25865403 -1.1389228
000340 74 8b cd 3d d6 70 82 3e b3 04 e0 be d0 65 18 bf
       0.10036364 0.25476712 -0.43753585 -0.59530354
000350 1c b1 05 3e 12 1c 89 3e 33 af 40 3e 03 6d 19 bf
       0.13055843 0.26779228 0.18816833 -0.59931964
000360 90 23 ee be d1 ea bb be e5 bd f0 3e 37 f2 7f be
       -0.46511507 -0.36702588 0.47019878 -0.24994741
000370 38 ef 20 3e f1 d0 0a bf ab 56 0f 3e 0f 27 4f 3a
       0.15716255 -0.5422507 0.13997905 0.00079022435
000380 e0 f4 ed 3e 7e 4f c3 3e 99 82 2a be bf 86 d2 be
       0.46475887 0.38146585 -0.16651382 -0.41118428
000390 42 31 00 3e 9c 59 b1 3e 0a fa bc be 0a 55 c2 3d
       0.1251879 0.3463868 -0.36909515 0.09488876
0003a0 32 60 d8 3d a3 8a 2d 3e 13 74 a9 3d 40 a6 3a 3e
       0.10565223 0.16947417 0.082740925 0.18227482
0003b0 90 8e cc 3d 4f d4 8e 3e ac 57 9c 3e 38 19 1f 3e
       0.09988129 0.27896354 0.30535638 0.15536964
0003c0 3e d0 1a bf 53 ce 2a 3e 10 5b 98 3d 9f a0 d4 be
       -0.60474 0.16680269 0.07439244 -0.41528794
0003d0 95 e2 af 3d 87 51 f6 3d 6a 33 4e be 19 5c 92 3d
       0.08588139 0.12027269 -0.201368 0.071464725
0003e0 42 5a d0 be 95 e5 d7 3d f6 1d c5 3d a0 72 48 3e
       -0.4069386 0.10541836 0.09624855 0.19574976
0003f0 6d 21 d8 3e 65 b0 5a 3e 5b 2d 96 be 72 73 a7 3d
       0.42213002 0.21356352 -0.29331478 0.08176316
